model.tflite (tflite, 642508 bytes, 15 tensors)

arith.constant f4 [128]
000000 d8 5e 09 bd 49 f2 8e bc d5 98 46 be f4 8f ee 3d
       -0.033537716 -0.017449515 -0.19394238 0.11648551
000010 51 60 28 be b9 92 f6 bd e1 08 0c bc 32 75 dd bd
       -0.16442992 -0.12039704 -0.008547039 -0.10813369
000020 fd e3 ed bd 4a c7 ad 3d 79 f9 05 be 36 a7 d4 bc
       -0.11615751 0.08485277 -0.13083448 -0.025958639
000030 40 d4 4e be 6b de 14 be 06 1a 46 be 56 b5 42 3d
       -0.20198154 -0.1453797 -0.19345865 0.047536217
000040 7a 8d 15 be 97 62 b0 3d 59 30 ff 3d ca 3a ef bd
       -0.1460475 0.086125545 0.124603935 -0.11681135
000050 07 47 4c be d9 90 56 bd df d8 f9 bc 2c 6f a5 bc
       -0.1994897 -0.05238423 -0.03049892 -0.020194612
000060 6f e8 12 be 24 6b a2 bd ab dc 0b be af ca 3b 3e
       -0.14346479 -0.07930592 -0.13658397 0.18339036
000070 db b6 95 bd c1 41 92 bc f6 23 da bd 9a 55 2d 3d
       -0.073102675 -0.01785362 -0.1065139 0.042317964
000080 78 42 69 be 53 43 fd bd 97 33 63 be f9 62 2a 3c
       -0.22779262 -0.12366357 -0.22187649 0.0103995735
000090 bf a9 f0 bd a1 4f 0e bd 0e b4 43 3d 61 77 1f be
       -0.117511265 -0.03474391 0.047779135 -0.15572883
0000a0 92 d1 c4 bd cb 3a a8 3d 3d b7 ac bc a7 2f 97 3d
       -0.09610285 0.08214339 -0.021083469 0.07382136
0000b0 dc b0 83 3d 99 ba 80 bd 4b 27 0e bd 7d 05 84 bd
       0.064302176 -0.06285591 -0.03470544 -0.06446359
0000c0 3f 37 8d 3d bd 46 0d bd da 19 8b bd a4 3d 54 bd
       0.06895303 -0.03449129 -0.0679204 -0.051816598
0000d0 34 28 53 be c7 9b f4 3c cf 88 20 bd 39 73 34 bd
       -0.20620805 0.029859437 -0.03919297 -0.044055197
0000e0 d9 da 10 3e 86 79 0f 3c 0b 18 af 3d 6c 99 65 3d
       0.14145984 0.008757001 0.08549508 0.056054518
0000f0 b0 f1 48 be 25 cc 06 3e 04 53 46 3e 79 0f 7a 3d
       -0.19623446 0.13163812 0.19367605 0.061049912
000100 20 98 85 3b 45 49 99 3d ef 98 ff bd 69 77 4a 3c
       0.0040769726 0.07484678 -0.12480342 0.012357571
000110 d6 f9 9a bd ec d7 c8 3c b5 ac bd 3d 81 29 19 3e
       -0.07567184 0.024517022 0.09261457 0.14957239
000120 11 55 a9 3c ab 95 59 bd be 10 b4 3d 92 9c f6 bd
       0.020670446 -0.05312125 0.08792256 -0.12041582
000130 99 8c 4d be 67 45 44 be 1b 33 eb 3d c2 df c6 bd
       -0.20073165 -0.191671 0.11484357 -0.09710647
000140 d3 6c 53 bd ac 43 12 3d 70 00 e9 bd d0 9a 6b be
       -0.051617455 0.03570907 -0.113770366 -0.23008275
000150 66 8e 1c bd a2 5a 00 be 6d 85 84 3d b2 f9 5b bd
       -0.03822174 -0.12534574 0.064707614 -0.053704925
000160 63 66 92 be ac cf f7 bd 6d ce b0 3d bb da 08 3e
       -0.2859374 -0.12100157 0.086331226 0.13364689
000170 0e b3 c9 bd de e6 32 bc 89 09 49 bd 78 e2 ef bd
       -0.09848605 -0.010919301 -0.04908136 -0.11713117
000180 d8 57 c5 3d 55 19 e7 bd 5b 39 3e be 19 3b a3 3d
       0.096358955 -0.112841286 -0.18576567 0.07970256
000190 b2 d3 e4 bd 50 44 4c be 29 25 ad bc 83 8c 56 3d
       -0.1117319 -0.19947934 -0.021135883 0.052380096
0001a0 f2 70 30 bd 5e 3f 24 bd 21 82 98 bd 36 7e 08 bc
       -0.043076463 -0.040099494 -0.07446695 -0.008330872
0001b0 09 6c 05 be 05 27 ec 3d ed a0 a1 bd a7 7f 71 be
       -0.13029493 0.1153088 -0.07892022 -0.23583852
0001c0 8b 09 87 3c fd 6b 8a bd 0a 5f 56 3c 87 b0 12 be
       0.016484043 -0.067588784 0.0130841825 -0.14325152
0001d0 4f af 7d 3d f4 98 c2 bc 99 42 0e 3d 80 d8 be 3c
       0.061934765 -0.023754574 0.03473148 0.023296595
0001e0 01 eb 47 be 59 c8 17 3d c8 42 fc bc 57 1f bf 3d
       -0.1952324 0.0370563 -0.030793563 0.093321495
0001f0 f1 29 76 bd ce 86 0e be 49 bc 51 bb 58 07 a3 3d
       -0.060098592 -0.13918611 -0.0032003096 0.07960385

arith.constant1 f4 [64]
000000 33 72 b4 bc 20 fe 67 bb ba d8 47 3d 76 7f 3d be
       -0.02202711 -0.0035399273 0.04879067 -0.18505654
000010 10 c6 c5 3d e9 3e dc bd f1 e8 77 3c 85 7b 0e bc
       0.09656918 -0.10754187 0.015131221 -0.008696442
000020 44 d9 85 bd 2b f4 4e 3d 03 83 3e 3c 7b 19 b6 3c
       -0.06535581 0.050525825 0.011627915 0.022228947
000030 1f b3 cf bd b2 46 96 3d 45 9f d3 3d 0d e6 68 bd
       -0.101415865 0.07337703 0.103331126 -0.05686002
000040 7c 16 02 be cb 03 3b bc 23 5c 0c be fa a8 1a be
       -0.1270389 -0.0114144785 -0.13707022 -0.15103522
000050 ad b2 b2 3c 9a f1 d9 bd 31 d5 ab bd 2b f5 c2 bd
       0.021813715 -0.10641785 -0.083902724 -0.09519418
000060 f8 04 be 3d 8f a7 c5 3c 3e ff d2 bd 79 e1 5f bd
       0.092782915 0.02412775 -0.1030259 -0.054658387
000070 bc d1 be bb ce 5e 2a 3d d6 14 09 bd 10 a5 81 bc
       -0.005823342 0.04159432 -0.033467136 -0.015825778
000080 32 b9 74 bd b0 fc 81 3c 8b 4e 7b be 7c eb 04 be
       -0.05974693 0.015867561 -0.2454168 -0.12980455
000090 87 1c c2 3d dc b6 56 3d 6f bf 54 3d ee a6 cc bd
       0.094780974 0.052420482 0.051940378 -0.09992777
0000a0 8a 2a cd bc b2 dd 99 be 4e 85 13 3c 97 3c 9e bd
       -0.025044698 -0.30051953 0.00900395 -0.077264
0000b0 2c fe e2 bd c4 41 63 3b 3e 27 2c be 91 45 90 3c
       -0.11083636 0.003467665 -0.16811845 0.017611297
0000c0 02 d5 cc bd 70 6c 3e bd c5 0a 7c bd 4d 29 c4 bd
       -0.100015655 -0.046490133 -0.061533708 -0.0957819
0000d0 3e e3 b9 bd 2a 1d 0e 3e d9 58 ce 3c 15 78 b4 bd
       -0.09076546 0.13878313 0.02518885 -0.08811966
0000e0 13 d0 cb bd 3e 43 9c 3d 0d 23 62 3d 55 64 76 3d
       -0.099517964 0.07630013 0.05520921 0.060154278
0000f0 3f 37 19 bd bd 83 72 bd 49 67 17 be 14 a6 35 be
       -0.037406202 -0.059207667 -0.14785494 -0.17739135

arith.constant2 f4 [128, 3, 3, 64]
000000 12 b1 96 3d ef 27 fd bd 7c 7f 84 3d c6 c3 22 3c
       0.07357992 -0.12361132 0.06469628 0.009934371
000010 d1 2a db 3d 72 1a 9f bd a3 98 e5 3d 84 52 55 bd
       0.10701526 -0.07768716 0.11210754 -0.052080646
000020 8f 17 82 3d a7 a3 44 bd 42 69 10 3e 2b 59 5b 3e
       0.0635215 -0.048007634 0.14102653 0.21420734
000030 99 a8 95 bc e4 11 c0 bd 64 c7 00 3e 90 0e ce bd
       -0.01826887 -0.09378412 0.12576061 -0.10061371
000040 b9 56 a7 bd 3e bf ab 3d e7 a4 5f 3c 49 7d 56 3d
       -0.08170838 0.08386086 0.013650156 0.052365575
000050 d7 2e ca bd d4 e3 da 3d 0b 65 e4 39 b8 56 1f 3e
       -0.09872215 0.10687986 0.00043562832 0.15560424
000060 09 75 2f bd 25 17 d7 bd e3 98 d1 bc ff b6 d7 bd
       -0.042836223 -0.10502461 -0.025585597 -0.105329506
000070 fb 5a f6 3c 2b 8c fa bd 33 f6 08 3d a2 c9 f0 3d
       0.03007268 -0.12233766 0.03343792 0.117572084
000080 29 cc 2a 3d 58 eb 1a be c8 f6 04 bc fe 1c c3 bd
       0.04169861 -0.15128839 -0.008115478 -0.09527014
000090 41 08 d6 bd 30 3f 0b 3d 5d 0b 6a bd bc 6c e6 3d
       -0.10450793 0.033995807 -0.057139743 0.11251208
0000a0 75 35 9e 3d e9 8e aa 3d eb fe 5a bd d3 dc 82 3d
       0.0772504 0.08328039 -0.053465765 0.06389775
0000b0 e6 41 91 3b a5 7d 35 3e ff 28 37 bd cd be 6d bc
       0.0044329045 0.17723711 -0.04471683 -0.0145108225
0000c0 6d 67 b0 bc 61 85 e6 3d e3 2b 26 bd 7d b0 0a be
       -0.021533692 0.11255909 -0.040569197 -0.13543887
0000d0 65 33 62 3d 46 25 3a 3d be 67 cd 3d ef 54 85 3c
       0.055224795 0.045445703 0.10029553 0.016275851
0000e0 9d 29 92 bd 50 6a 1b bc 01 ce e0 3d 63 11 02 3d
       -0.07136843 -0.009485796 0.10976792 0.031754863
0000f0 9c ec 99 3d 44 35 0c 3d d2 af b8 3d 0c a8 c9 3c
       0.07515833 0.034230486 0.0901791 0.024616264
000100 0f 79 f1 3c 7a 63 9a 3d 91 e1 b9 3d 8a 0b 1f 3d
       0.02947667 0.07538505 0.090762265 0.038829364
000110 cc 1c ca bd 1f 4b 91 3d 3b d2 69 3d 49 fc a0 3d
       -0.09868774 0.07094406 0.057085257 0.078606196
000120 3f 3c 3a 3d 0a f2 96 3c ff fb 1d 3d 10 f7 27 bc
       0.04546761 0.01842596 0.0385704 -0.010251775
000130 b2 60 91 bc 30 00 89 bc 39 3e 10 3e 17 9f c5 bd
       -0.017746303 -0.016723722 0.14086236 -0.096494846
000140 5c ec 05 3d 04 af 85 3d 80 c5 8e bd e5 b9 23 3d
       0.032696113 0.06527522 -0.06971264 0.039972205
000150 25 b9 ec bd ae b8 f6 3d ad ce 9f 3c f5 3d 4c 3c
       -0.11558751 0.120469436 0.01950773 0.012465944
000160 15 e0 8d bc 8f d1 da 3c 28 1c e6 bd a4 13 00 3e
       -0.017318765 0.026711253 -0.11235839 0.12507492
000170 ca 42 a3 3c 55 fb 01 be 02 a2 48 3e ca 99 32 bc
       0.019929308 -0.12693532 0.19593051 -0.010900924
000180 33 bb 0a 3d e5 53 a5 bd 5b 6f 28 bd 3f f3 5a 3d
       0.033869933 -0.08072642 -0.04112182 0.053454634
000190 d2 f3 75 3d a4 10 63 bd 4a c0 83 3c d0 9f 00 3d
       0.06004698 -0.05543579 0.016082902 0.03140241
0001a0 02 99 1f 3b c8 9a 86 3d f2 b8 98 bc 4f 3a f2 3c
       0.0024352674 0.06572491 -0.018642876 0.02956882
0001b0 65 3a 7e 3d 82 84 9a 3c 7a ef a9 3c de 52 39 3d
       0.062067408 0.018862013 0.020744074 0.045245044
0001c0 ee 5e 11 bd 53 40 05 bd ca cd 94 bc 6e fa 07 bd
       -0.035490923 -0.032532047 -0.018164534 -0.033197813
0001d0 39 0c 15 3c a1 a8 96 bd c0 8a 14 3d 91 31 62 bd
       0.009097152 -0.07356382 0.036265135 -0.05522305
0001e0 4b 3b a0 3d c5 bc ce bd d5 c9 c0 3d 82 33 7e 3b
       0.07823809 -0.10094599 0.094134964 0.0038788025
0001f0 2d 1b b4 3c 59 96 83 3c b4 6b d6 3d 77 39 13 3e
       0.021985615 0.016062902 0.104697615 0.1437739
000200 74 74 5d 3d 18 b7 df 3d 0c 52 39 3d e0 e6 a0 bc
       0.054066136 0.10923594 0.04524426 -0.01964134
000210 98 2e 0f be f9 b1 ac 3d e6 1a ed bc 49 71 ae 3c
       -0.13982618 0.08432383 -0.02894349 0.021294253
000220 69 1e 40 3d e4 8d 37 bc f2 37 be 3a f9 fe b8 3c
       0.046904 -0.011203263 0.0014512523 0.022582518
000230 34 9f 54 3c ec 57 9b bd 60 b7 63 bd 90 d4 86 3b
       0.01297741 -0.07585129 -0.055594802 0.004114695
000240 27 c8 76 bd 03 4d eb 3d 12 51 06 3c fa e5 8d 3d
       -0.060249474 0.11489298 0.00819804 0.0692863
000250 e7 54 6a bd cb 92 ad 3d 35 61 82 bd af c7 0b bd
       -0.057209875 0.08475264 -0.06366197 -0.03412598
000260 08 09 14 be 8f e4 72 3d ba c7 94 bc 55 ee c9 3d
       -0.1445657 0.0593 -0.018161643 0.09859911
000270 40 04 c9 3d 30 fd d3 bd 14 4c d2 3d 3a 7e 66 3d
       0.09815264 -0.10351026 0.10268417 0.056272723
000280 eb 47 60 3d 77 6e cf bd 1a fb 66 3d 9d 5d e6 3c
       0.054756086 -0.10128491 0.056391813 0.02812081
000290 75 24 b1 3b 57 ac 2b be d2 05 9e bd e3 09 c4 3d
       0.0054059573 -0.16764961 -0.07715954 0.09572198
0002a0 a8 76 23 3e 82 77 70 3b 2c a3 9e bd 4a 36 1c 3e
       0.15963233 0.0036692326 -0.07745966 0.15255085
0002b0 42 6a 8a 3d d2 16 a1 bd 6e 17 04 bd 35 66 53 bd
       0.06758548 -0.07865681 -0.032248907 -0.051611144
0002c0 4f 76 4a bd d0 1d a4 3d 85 5b 9a bd fe a6 7a bd
       -0.049429234 0.08013499 -0.07536987 -0.061194412
0002d0 45 19 36 3d 84 3e cc 3c 56 8e 1b 3d 0f 1f 4a bd
       0.044457693 0.024932154 0.03797754 -0.049346026
0002e0 dd 59 2b bd d9 8e 92 bd bd 52 e6 3d b3 42 34 bd
       -0.041833747 -0.07156152 0.1124625 -0.04400892
0002f0 05 ff 3d bc 19 ca 35 3e cf 01 e4 3d b6 f9 34 3e
       -0.011596446 0.17752875 0.111331575 0.17673382
000300 f7 a9 95 3d 32 58 48 be e8 3e f4 3d e1 a4 07 3e
       0.07307809 -0.19564894 0.11926061 0.1324649
000310 15 4b a7 bc db 01 13 bd d5 0e 01 3e 2b 66 30 bd
       -0.020421544 -0.03589044 0.12603314 -0.043066185
000320 ac 8d e7 3d 22 6f 4d 3b f1 2f fd 3d 18 54 84 3d
       0.11306319 0.0031346758 0.1236266 0.06461352
000330 36 f0 39 bd 40 14 0d bd a0 c9 eb 3d 9a e2 9c 3c
       -0.0453951 -0.03444314 0.11513066 0.01915102
000340 0d d7 4d bc 8f 66 08 3d 3d f1 d7 bd a5 5d 9e bd
       -0.012563479 0.033300932 -0.105440594 -0.07732705
000350 46 fa b1 bd 35 58 fb 3d 77 f0 76 bd ed e4 97 3d
       -0.08690314 0.122726835 -0.06028792 0.07416711
000360 2a 88 e0 bd 66 76 98 bd 32 f4 d2 bc 48 24 68 bc
       -0.10963471 -0.07444458 -0.025751207 -0.014168806
000370 30 54 53 3d e7 6a ff ba 15 55 af 3d b0 9c 59 3c
       0.05159396 -0.0019486815 0.0856115 0.013281986
000380 fa c5 d2 3d d3 ab d2 bd 16 91 9c bb 43 54 11 39
       0.10291667 -0.10286679 -0.004778038 0.00013859668
000390 cd 0e 3c 3c 32 c2 ce bd 18 4a 27 bd 0a d4 9e 3d
       0.011478138 -0.100956336 -0.040842146 0.07755287
0003a0 a1 f9 23 bd d0 08 98 bc 36 f8 46 be e0 a0 bd 3d
       -0.040032987 -0.01855889 -0.19430622 0.092592
0003b0 2f ee 36 3d 09 69 f2 bc 2c 3e f3 3c e4 0c ba 3d
       0.044660743 -0.0295911 0.029692732 0.0908449
0003c0 c7 84 97 3c 8a 9d c3 3d 9a 0b 50 bd fd 8b 13 3d
       0.01849593 0.095515326 -0.050792314 0.036022175
0003d0 9f 77 1d 3e 96 dd 93 bc a1 39 65 3d 85 4b 0b 3e
       0.15377663 -0.018049996 0.055963162 0.13603027
0003e0 9a 0c e5 3b 8e 28 51 bd 68 a1 e9 3d b2 34 ca bd
       0.0069900276 -0.051064067 0.11407739 -0.09873332
0003f0 bb 83 00 be 1f 0f 8b 3d 86 b9 d3 3c 77 41 97 3d
       -0.12550251 0.067899935 0.0258453 0.07385533

arith.constant3 f4 [64, 3, 3, 32]
000000 01 bd e8 bd 12 67 38 3d d1 3e 6f bd 66 66 43 3d
       -0.11364175 0.04502017 -0.058409516 0.047705077
000010 e5 db 55 3e 93 a4 d7 bb 08 be 51 3d 52 f4 bf bc
       0.20884664 -0.006580898 0.05120662 -0.02343193
000020 d8 4f b6 bc 05 9b 98 3d cb ac 84 3d 6c ee 49 3e
       -0.02225487 0.07451443 0.0647827 0.19719857
000030 cf 3f e7 3c 11 5f 9a 3c b3 1f 97 bd 67 53 72 bd
       0.028228668 0.01884416 -0.07379093 -0.05916157
000040 57 09 96 3d 59 91 09 be 23 60 2a bd 59 f4 e1 3c
       0.07326 -0.13434352 -0.04159559 0.027582334
000050 35 e4 ff 3c a0 9d ff 3b 02 44 29 3d a3 4a 40 3e
       0.031236747 0.007800773 0.041324623 0.18778472
000060 9b d6 f9 3c 88 03 11 3c ce 8c af 3a 02 d0 9c bb
       0.03049784 0.00885094 0.0013393403 -0.0047855387
000070 85 d9 d6 3c b7 0d 38 bb 10 93 77 bd cf 19 99 3d
       0.026226768 -0.0028084347 -0.060442984 0.07475626
000080 51 a8 27 3c 98 ab ab bd e1 7a 47 bd 9a 85 98 bd
       0.010233001 -0.08382338 -0.04870117 -0.074473575
000090 8c 76 43 3c a3 b9 da 3c 2c b4 04 be 44 28 cf bc
       0.011930119 0.026699847 -0.12959355 -0.025287755
0000a0 5b c5 03 3b 8e d5 a7 bc a1 70 29 3c d8 83 d6 3a
       0.0020106647 -0.020487573 0.010341794 0.0016366197
0000b0 88 87 de bd 18 fc ac bd 66 ce 1c bc b6 99 15 be
       -0.10865694 -0.084465206 -0.009570694 -0.14609417
0000c0 7c 3b 21 bd b9 92 b8 bd e1 dc 11 3c 52 f9 cd 3d
       -0.03936337 -0.0901236 0.008902759 0.1005732
0000d0 a2 c2 b3 bd de b6 d3 bc ea b8 95 bd 0f 17 1f bc
       -0.08777358 -0.025844034 -0.0731066 -0.009710087
0000e0 32 4e d5 3d 7b 8e 5b 3d 4a 6c 95 bd dc b5 88 bc
       0.10415305 0.053602677 -0.07296045 -0.01668828
0000f0 76 d4 71 bc 7f 84 27 3d e8 a7 94 3c 19 06 8c bd
       -0.014760127 0.040897842 0.01814647 -0.068371005
000100 4c ad 15 bd f6 9a 65 3d 7b 4f f3 bb 11 ca 1d bd
       -0.036542222 0.056055985 -0.0074252463 -0.038522784
000110 45 0d d2 bd 1b a8 1e 3d 14 0c f8 bc 9f 40 ac bd
       -0.10256437 0.038734537 -0.030279197 -0.08410763
000120 c0 04 e4 bd 64 ce 97 bd 63 63 10 bd 2c e0 95 bd
       -0.111337185 -0.07412413 -0.035251033 -0.07318148
000130 ac e7 14 bd af 31 d5 bc f0 ec b9 3c 76 87 3c 3d
       -0.036353752 -0.026024668 0.022695988 0.046027623
000140 0c fc a9 bc 76 9c b4 3c cd b7 37 bc df 4b ee bd
       -0.020750068 0.022047263 -0.011213255 -0.11635565
000150 b3 7a 47 bd 02 1f a3 bc 1c d2 e3 3c 80 10 84 be
       -0.048701 -0.019912247 0.027810149 -0.25793839
000160 54 3a cc 3c 91 9f 9f b9 d6 33 22 bd 12 5a 61 be
       0.024930157 -0.0003044573 -0.039600216 -0.22007015
000170 b5 37 b1 bd 65 a1 da bc ac 7c cf bc 77 22 80 ba
       -0.086532034 -0.026688287 -0.025328003 -0.0009775896
000180 62 51 a6 bd 57 d6 97 3d cd 65 a9 bb f2 38 5d 3a
       -0.08120991 0.07413929 -0.0051696063 0.00084389665
000190 2d 71 d4 3c b2 85 02 bd 80 57 90 ba a3 a0 9a 3d
       0.025932873 -0.031865783 -0.0011012405 0.0755017
0001a0 67 fe 90 be 83 56 95 3d 6d 24 9b 3d 9a a0 95 bd
       -0.28319094 0.072918914 0.07575307 -0.07306023
0001b0 af 67 ec 3c 70 8a f4 bc 32 d8 0e 3d aa 67 64 bd
       0.028858034 -0.029851168 0.03487415 -0.055762924
0001c0 c3 14 a6 3d 74 2a 5a bd 71 43 94 3c 47 a8 87 be
       0.08109429 -0.053263143 0.018098565 -0.26495573
0001d0 c4 99 c4 bc 19 bc bf 3d 6f ae 7c 3d f2 c6 e9 3c
       -0.023999102 0.09362049 0.06168979 0.028537247
0001e0 9d ff 20 3d b8 1c fa 3c 76 61 0e 3d 3d 93 18 bc
       0.03930627 0.030531272 0.034760915 -0.009312448
0001f0 d1 24 4d 3d a9 43 e8 b9 a3 10 57 bd e1 64 17 bc
       0.05008394 -0.000443009 -0.0525061 -0.00924036
000200 5d 0d 1d be ae c8 6d 3c 9a d4 0e 3e a7 c2 b0 3d
       -0.15337129 0.014513178 0.13948289 0.08630877
000210 04 03 a3 3d 01 f0 b2 3c 0b ec a6 3d c4 8b f5 bd
       0.079595596 0.021842958 0.081504904 -0.11989549
000220 94 d4 71 3d b1 ff f2 3c 16 f4 dd 3d 78 94 10 bd
       0.05904062 0.029662939 0.10837571 -0.03529784
000230 9b 5f e9 3d 88 7f 05 bd bf be 49 3d 33 80 0e 3e
       0.113951884 -0.032592326 0.049254175 0.13916092
000240 69 20 f0 3c 37 3a 66 3c 45 cb b0 3c ba 8a 9a 3c
       0.02931233 0.014051965 0.021581301 0.018864978
000250 e4 18 89 3d 20 64 58 3e 93 31 81 3d 62 dd 15 3e
       0.06694201 0.21131945 0.06308284 0.14635232
000260 ff d2 3d 3d 46 b9 b5 bd 19 d4 7a 3c 9f 35 bf 3d
       0.0463438 -0.08873229 0.015309357 0.09336399
000270 9b e5 ef 3b 3f f6 0c bd a2 c2 eb bc 61 c6 b6 3d
       0.0073210723 -0.034414526 -0.028779332 0.089245565
000280 96 9f 29 bd 1a e0 5c bd bf d1 65 bc 6a f6 ce bb
       -0.04141196 -0.053924657 -0.014027058 -0.006315996
000290 87 3f fd bb 70 14 71 bd 27 94 14 be 51 db d2 bd
       -0.0077285203 -0.05885738 -0.1450964 -0.102957375
0002a0 ad 22 56 3e d4 95 27 bd 9e 0b 15 3d f4 10 35 be
       0.20911665 -0.04091437 0.036388032 -0.17682248
0002b0 33 be 52 bd aa 4a 8c 3d c7 ba a5 bd 58 4e f1 3c
       -0.05145092 0.068501785 -0.080922656 0.029456303
0002c0 24 12 56 bb 12 e5 d5 bd d2 b6 1a be 6c 8f 2f 3e
       -0.0032664621 -0.10444082 -0.15108803 0.17144555
0002d0 c5 7d 48 3d 0a 33 30 bd c9 a6 7d bd 10 85 c8 3d
       0.04894807 -0.043017425 -0.061926637 0.09791005
0002e0 bf b7 98 bd fd 7f ed 3b a6 e5 fe 3c 4d 42 aa bc
       -0.07456922 0.0072479234 0.031115364 -0.020783568
0002f0 c4 99 15 3d cc d2 f5 bb 94 7f b7 3d 6d ea 8c 3c
       0.036523595 -0.0075019356 0.089598805 0.017201627
000300 eb c6 34 3d 9a bd 66 3d 2d 2a f1 bd db 8a 40 bd
       0.044135015 0.056333162 -0.117756225 -0.047007423
000310 a4 e3 53 be 76 dc 59 bd 8a e9 df bd 91 fa c7 bb
       -0.20692307 -0.053188764 -0.10933216 -0.006102868
000320 8e 89 a6 bd c4 cc ed bd d4 08 89 3c 78 63 94 3d
       -0.08131705 -0.116113216 0.016727842 0.07245535
000330 c0 2b 32 bd 21 0d 8f 3c c5 0c 09 bd 35 58 74 bd
       -0.043498755 0.017462315 -0.033459444 -0.059654433
000340 41 5d 1e bd d1 6a 26 3d f5 0b 37 bd 87 99 e3 3d
       -0.038663153 0.04062921 -0.044689137 0.111132674
000350 93 e1 99 bc ae ce 83 bd 85 b5 e5 bd 38 14 99 be
       -0.01878432 -0.064359054 -0.11216263 -0.29898238
000360 3a 71 8d bb 59 92 98 3d 62 ec ad 3d ae 8a 4b be
       -0.004316476 0.074497886 0.08492352 -0.19877121
000370 93 fd ce 3c 16 e0 cc bc 71 6e 9c 3d 3a 73 1f be
       0.025267398 -0.025009196 0.076382525 -0.15571299
000380 f2 96 15 3d c0 85 c2 3d 42 e1 90 bd 53 8b b2 bd
       0.036520906 0.09498167 -0.070742145 -0.0871798
000390 03 e4 15 be 7b 18 62 bd 96 60 a1 bd d6 37 8c bd
       -0.14637761 -0.055199128 -0.078797504 -0.06846587
0003a0 40 81 59 be a9 13 81 3b b9 5e 99 3b eb 9e 83 3d
       -0.21240711 0.0039391113 0.0046804813 0.064267956
0003b0 98 f7 f0 3c 0c 45 53 bb 49 92 c7 bd 01 c2 5d bd
       0.029414937 -0.00322372 -0.097446986 -0.054140095
0003c0 e7 d0 53 3d 61 86 0f bd 76 38 99 3c 4c d0 7e bd
       0.051712897 -0.035040263 0.01870368 -0.062210366
0003d0 4d d7 61 bd 9a 9d 32 bd e6 fe d4 bc 50 f9 38 be
       -0.055136967 -0.04360733 -0.026000451 -0.18063855
0003e0 9c a4 aa bd 85 cb c7 3b 75 6a 84 3d b9 9d 32 be
       -0.08332178 0.0060972595 0.064656176 -0.17442979
0003f0 c0 93 07 bc eb 9b ab bd 6b 75 63 bd 76 f1 c2 3b
       -0.008274972 -0.08379348 -0.0555319 0.0059491945

arith.constant4 f4 [1, 256]
000000 7a 20 96 3d 66 63 a5 3d 15 5d 26 bc f7 0a 9b 3c
       0.07330413 0.08075599 -0.010154028 0.018926127
000010 60 ef d6 3d 9e 1e 43 bc c9 47 26 3d 09 88 e9 3c
       0.10494876 -0.011909155 0.040595803 0.02850725
000020 c1 9c 23 3d 05 0c aa bc 6d 59 f5 bc c7 39 08 bb
       0.039944414 -0.020757684 -0.029949868 -0.002078639
000030 a2 be 81 bc 3d 59 25 bd 83 d3 f9 bc 2c 0f ca 3a
       -0.015837971 -0.040368307 -0.030496364 0.0015415899
000040 21 26 b4 bd 35 49 e0 bc 3c e7 4f 3d ac 61 ba 3d
       -0.08796335 -0.027378658 0.05075763 0.09100661
000050 95 7e e7 3c d0 4b 88 bd 9c 80 7e 3d 3c 1e 2d 3d
       0.028258601 -0.06655085 0.06213437 0.042265162
000060 76 41 71 bd e8 15 35 bd ab 48 9d 3c 9e 4f 55 3d
       -0.05890032 -0.044210345 0.01919969 0.052077882
000070 d8 db 9a bd ff fc e2 3c 8a 3a a2 3d df a2 b6 bd
       -0.07561463 0.027708529 0.07921322 -0.08917784
000080 35 7b a8 ba 5c 8a a8 bd ec a7 27 bc f3 c3 a7 3d
       -0.0012854101 -0.08229515 -0.010232907 0.08191671
000090 c4 21 0e bd 31 9d 4c 3d bf a6 39 3c c8 08 e0 bd
       -0.03470017 0.049954597 0.011331259 -0.10939175
0000a0 24 70 27 3d 23 b3 82 bd 63 fa d9 bc d6 00 a8 bd
       0.04087843 -0.06381824 -0.026608652 -0.082032844
0000b0 a0 fc 51 3d f6 a6 b6 bc 69 9e fb bc 54 01 8f 3d
       0.051266313 -0.02229641 -0.030715184 0.06982675
0000c0 7e 3e 96 bd 04 7e fe 3c ff 95 93 bd f6 85 b0 bd
       -0.07336138 0.031065948 -0.07206344 -0.08619301
0000d0 97 58 12 bd 81 08 06 bc 79 34 44 3d a5 06 58 bd
       -0.035729017 -0.008180738 0.047901604 -0.05274071
0000e0 91 6d af 3d 37 ce 9d bc 1d bf 91 bd d4 c5 d5 3d
       0.0856582 -0.01926337 -0.0711653 0.10438123
0000f0 3f cf 6e 3d 4b 02 14 3d 7c 84 4c 3d e8 1b c0 bd
       0.058303114 0.036135 0.049931034 -0.09380323
000100 4b d0 96 bd 0e 06 87 bd fd 4d 86 bc 1d 76 8b 3d
       -0.073639475 -0.06592952 -0.01639461 0.06809638
000110 7b 80 56 3d e8 f6 84 3d 2d 4f a6 3b ab 24 13 3d
       0.052368622 0.06492406 0.0050753565 0.03592364
000120 be 3c b1 3d e8 01 6d bd 36 26 c1 bc e5 81 73 3d
       0.08654164 -0.057863146 -0.02357779 0.05945005
000130 c7 43 a1 3d 4a e4 e2 bc 69 a7 96 bd 82 08 14 3d
       0.078742556 -0.027696747 -0.0735615 0.036140926
000140 bf e4 35 3d cc 35 e7 3c 49 8c bc 3c 9a 21 68 bc
       0.044407602 0.028223895 0.023016112 -0.0141681675
000150 7d ea be bd 38 c1 91 3d 46 c1 12 bd df 06 0c 3d
       -0.09322069 0.07116932 -0.03582885 0.03418624
000160 80 53 27 bd 87 28 3c bd 26 17 3a 3d f3 5e 8c bd
       -0.040851116 -0.045937087 0.045432232 -0.068540476
000170 c2 f1 59 3d 7e 94 90 3d d4 35 9e bd a0 8e 07 3d
       0.053209074 0.07059573 -0.07725111 0.033095002
000180 86 60 aa bb 2c f8 6d bc 02 61 dd bc be 6f d1 bc
       -0.005199495 -0.014524501 -0.027023796 -0.025565978
000190 ce 29 3d 3c 17 40 43 3d 6f e5 d3 3c c2 e4 f5 bd
       0.011545612 0.047668543 0.025866238 -0.12006523
0001a0 a0 98 ca 3d 40 32 08 bd aa e1 bd 3c 02 1c cb bc
       0.09892392 -0.033251047 0.023178894 -0.024793629
0001b0 10 42 64 3c 36 48 92 3d 8c 75 3d bd 92 c9 91 3d
       0.013931766 0.071426794 -0.04625468 0.071185246
0001c0 e6 ba 40 bd a5 9f 86 3d 46 f4 80 3d 9c 65 06 3d
       -0.04705324 0.065734185 0.062965915 0.032811746
0001d0 cc db 62 3d d4 6c 94 bd c8 b3 9e bd 83 56 e6 3c
       0.055385396 -0.0724732 -0.07749134 0.028117424
0001e0 08 eb d4 bc ec 8a be bc 9f ce c4 bd a9 77 5c 3d
       -0.025990978 -0.023259602 -0.09609722 0.053825054
0001f0 b7 c9 10 3d 60 f4 81 bd 9a 36 eb bc 22 dc 61 3d
       0.03534862 -0.06345439 -0.02871256 0.055141576
000200 c4 84 e2 bb 71 50 e6 3c f3 a1 54 bd a2 44 2b bc
       -0.0069127996 0.02811453 -0.05191226 -0.010453375
000210 66 34 45 bc fa 69 b2 3c 04 06 19 bd 5e 2d ad bc
       -0.012036419 0.02177905 -0.037359253 -0.021139797
000220 c7 cc 42 3c 37 de f3 3d 1c cb 01 bd 51 6c 89 3d
       0.011889643 0.119076185 -0.03168784 0.06710113
000230 8e a7 d3 3c 8c a5 e2 bc 58 da 86 3d 9f cb e5 bc
       0.025836732 -0.02766683 0.065846145 -0.028051196
000240 c4 1d 95 3d 54 8f d7 bc 6e b8 05 3e fd 79 0c bd
       0.07281068 -0.026313461 0.13058636 -0.034296025
000250 e1 41 45 3b b6 ab b3 bc 5f 08 57 3c 7b 42 2d bd
       0.0030099081 -0.021932464 0.013124554 -0.04229973
000260 ed dc 1c bd a2 9f 6a bd 9c 15 2b bd 1e 5b d9 bc
       -0.03829663 -0.057281144 -0.041768655 -0.026532706
000270 48 25 0d bb 63 1b dc 3d 0f eb ff bc d4 4a 49 3d
       -0.0021537114 0.10747411 -0.031240014 0.049143627
000280 b7 ad 16 3c cb 22 70 bc 60 86 b8 3c b8 aa da 3b
       0.00919669 -0.014656733 0.022525012 0.0066731833
000290 b3 52 6c bd e3 1c 31 3d ec 99 d0 3d f4 06 5d bc
       -0.057696056 0.04324044 0.10185608 -0.013490427
0002a0 91 86 94 bc 5b c1 61 bd 91 f9 da bc 4d be 89 3d
       -0.018130573 -0.05511604 -0.02673033 0.0672575
0002b0 70 a6 20 3d 3d de 9c 3d 18 ac 2b bc b8 ce 9b bd
       0.039221227 0.07659576 -0.010478042 -0.07607788
0002c0 99 5b 95 3d a1 23 91 bc 16 d9 aa bc 6a ff 50 3d
       0.072928615 -0.017717184 -0.020855468 0.05102483
0002d0 a7 3c 02 bd af bf 24 3d a6 44 62 3d 75 ae 56 bd
       -0.031796124 0.040221866 0.05524125 -0.05241247
0002e0 da 1b 48 bd 19 7a 1e bd 9a 13 d1 bd f2 d6 88 3d
       -0.048854686 -0.03869066 -0.10208817 0.066816226
0002f0 fa db 9e 3c 97 00 cf 3b c6 92 f8 bb 02 02 c7 3d
       0.019392002 0.006317209 -0.007585856 0.0971718
000300 87 23 87 3d 0a 8c f6 3d c4 79 7a 3d 3e 2d 2c bd
       0.06598573 0.12038429 0.06115128 -0.042035334
000310 5a c7 4b bd 23 b3 97 3d 8e 38 86 bd 45 32 18 3c
       -0.049750663 0.074072145 -0.06553756 0.009289329
000320 bb 61 2d 3c d6 62 e4 ba 3a 57 5e bd 3a 57 e9 bc
       0.010582383 -0.0017424475 -0.054282404 -0.028483976
000330 10 d8 68 bd 29 2f 46 3d d7 36 a9 bb 67 d7 3c 3d
       -0.05684668 0.04838482 -0.005164008 0.04610386
000340 55 c8 ff bc b2 0a bf 3d 66 62 67 3c fc 03 4f 3d
       -0.031223455 0.09328212 0.014122581 0.05054091
000350 40 3c 8f bd 44 97 73 3d ee 60 41 3d 3c 41 ed bd
       -0.06993914 0.05947043 0.04721158 -0.11584708
000360 61 df de 3d ab 39 cd 3c 26 bd 8b 3d 5a 18 9f 3d
       0.1088245 0.025051912 0.068231866 0.077683166
000370 07 92 26 bd 90 60 cd 3c bc 66 1a 3e 8a 7e 93 bd
       -0.040666606 0.025070459 0.15078253 -0.0720187
000380 fd ce 37 bd 4c 98 a1 3c 44 48 41 bd 97 5b da bc
       -0.044875134 0.019725941 -0.04718806 -0.026655002
000390 39 69 82 3d f4 68 e1 3d 08 ad 92 bd 29 a1 05 bd
       0.06367726 0.11006346 -0.07161909 -0.032624397
0003a0 53 62 26 3d 7f d4 98 bc 81 ed 2e 3c 6a 3d 66 3d
       0.040621113 -0.018656014 0.0106767425 0.056210913
0003b0 b0 80 81 3c 77 79 3f bd 40 e1 0f bc eb 9c 52 3d
       0.015808433 -0.046746697 -0.008781731 0.05141918
0003c0 5c f1 2b 3d 55 0b b0 3d 99 27 55 3c d6 77 99 3d
       0.041978225 0.085959114 0.013009929 0.0749356
0003d0 50 36 5c 3b b5 8b d6 3c f4 87 fe bc 59 52 01 bd
       0.0033601709 0.026189664 -0.031070687 -0.031572673
0003e0 42 cf 58 3d cd 19 84 3d 9d 27 28 bd 7b 47 d6 bd
       0.05293203 0.064502336 -0.041053403 -0.104628526
0003f0 3b 10 59 3d 88 f0 d0 bd c2 8d c4 3d 7a 96 8f bd
       0.052993994 -0.10202128 0.09597351 -0.07011123

arith.constant5 f4 [256, 256]
000000 5c 7f c1 3d c4 42 70 3d 67 7f fb bb 5b 07 26 3e
       0.0944812 0.058657423 -0.0076750997 0.16213743
000010 e1 78 0e be eb 6f 2c 3e b3 a3 91 bd 2d 9a fd bd
       -0.13913299 0.16839568 -0.07111301 -0.12382922
000020 7f 8b 96 3d cb 40 e6 3d 41 c2 c4 bc eb 01 f0 bd
       0.073508255 0.11242827 -0.024018409 -0.11719116
000030 bc 59 3d 3c b1 8a bb 3b 46 c9 a4 3d c0 b0 25 bd
       0.011557039 0.0057233204 0.08046202 -0.040451765
000040 3c 9b 1c be 21 82 ef 3b 63 72 4f 3e 6a c9 83 3d
       -0.15293592 0.0073092137 0.20258479 0.06434901
000050 de 38 76 3d 4c 86 83 bd d9 61 f4 bc 2b 52 8f bc
       0.060112827 -0.064220995 -0.029831814 -0.017495235
000060 26 b5 f4 bd 81 56 d7 bc a2 e7 b7 3d 05 d3 be bd
       -0.11948614 -0.026286365 0.08979727 -0.093175925
000070 a8 8b 79 bd 5a b2 76 be 9c 8e 56 bd 8c 2a 15 bd
       -0.060924202 -0.24091473 -0.052382097 -0.03641753
000080 e8 f1 4b 3e a4 f1 35 bd 2a ae f8 bd 34 2b f0 3c
       0.19916499 -0.0444199 -0.12142594 0.029317476
000090 c4 aa 64 3d 6b 56 1b bc c9 7d 05 3e 0b 71 bc 3d
       0.055826917 -0.009481053 0.13036264 0.09201249
0000a0 9a b0 57 bd ca 83 3f be 6d 41 1c be bd 99 f1 3c
       -0.052658655 -0.18702617 -0.15259333 0.029492253
0000b0 61 b8 9b ba 44 90 a2 3d c5 a2 a2 3c 2e f8 c8 3d
       -0.0011880511 0.07937673 0.019853005 0.098129615
0000c0 d7 7b bd 3d 56 51 fe bd 25 7b c2 3c f6 02 82 bb
       0.09252136 -0.12417857 0.02374036 -0.003967638
0000d0 37 39 98 bc c5 f7 0b 3c 92 0b 17 3d 68 63 a9 bd
       -0.01858197 0.00854296 0.03687627 -0.08270913
0000e0 96 d0 ae 3d 5a 44 02 3d ec 15 02 bd 4d c3 bf bc
       0.08535878 0.031803466 -0.031759188 -0.023408556
0000f0 50 b9 b3 3d 83 39 d0 3d b4 8d c7 3d c8 c1 b3 bd
       0.0877558 0.101672195 0.097438246 -0.08777195
000100 43 8a 24 bd 00 65 fc 3c 03 35 5c 3b fe a5 78 bd
       -0.04017092 0.03080988 0.0033600933 -0.060705177
000110 66 18 36 bc 64 d4 6d bd ea 03 10 be b3 fa 41 be
       -0.0111142155 -0.05806388 -0.14063993 -0.1894329
000120 fb 29 ec 3c 37 43 82 bc 2f ba 1c 3e ec 49 17 be
       0.028828612 -0.015901191 0.15305398 -0.14774293
000130 01 e2 10 bd c8 75 9e 3d 9c 71 0b 3e 9e b0 f8 bc
       -0.035371784 0.07737309 0.13617557 -0.030357655
000140 97 9c dd bd 54 7d 96 3c a5 10 52 bb bc b8 12 3e
       -0.10820883 0.018370308 -0.0032053378 0.14328283
000150 d4 15 eb 39 98 6a 0a 3e 1e c9 42 bc 82 ce d2 3d
       0.00044838956 0.13517225 -0.01188877 0.102932945
000160 58 c6 18 bd 9d 80 97 bc 6a bd 8b 3d 17 2b c0 3d
       -0.03729853 -0.018493945 0.06823237 0.09383219
000170 e7 95 8c 3d c4 0a 90 bc 4f 30 01 be 47 70 b6 ba
       0.06864529 -0.017583258 -0.12616085 -0.0013918959
000180 e1 98 e6 3d f9 77 19 be ac 40 81 bc 81 6e 6d 3d
       0.11259628 -0.14987172 -0.015777908 0.057966713
000190 8b 83 e6 bd 0a ba 10 3e 12 b5 b0 3d 3a 9c a3 bd
       -0.112555586 0.14133468 0.086282864 -0.07988782
0001a0 70 9f 2d be 50 8f c7 3c b7 59 a7 3c bd b9 93 3d
       -0.16955352 0.024360329 0.020428522 0.07213161
0001b0 bc 56 1b 3e dd 62 9e 3c 58 bf cd bd d5 cc 61 bc
       0.15169805 0.019334251 -0.100462615 -0.013781746
0001c0 98 19 12 bd 76 22 8c 3c 56 3c 8d 3d 29 f3 09 3e
       -0.03566894 0.017106276 0.06896274 0.13471664
0001d0 2e 9d 34 bc d0 a5 94 3d 8a 58 2c be a1 09 9e 3d
       -0.011023803 0.07258189 -0.1683065 0.0771668
0001e0 d4 53 89 3c d5 dd 4f 3d 18 ab db 3d dd d4 c4 bd
       0.016763605 0.050748665 0.10725993 -0.09610913
0001f0 da 45 46 bd f7 cf e2 3d ef 1b 2e be 57 08 9a bd
       -0.04840646 0.110748224 -0.17002843 -0.07521122
000200 f1 f8 27 be 72 d3 02 3d f1 94 6a bd ad 91 c7 3c
       -0.16403557 0.03193993 -0.057270948 0.024361456
000210 46 97 16 bc 0b 83 18 be 3a 85 27 bd 2f f2 16 be
       -0.00919134 -0.14893739 -0.04089854 -0.14740823
000220 28 88 d2 bc 06 87 46 bd f0 75 85 be 3b d8 e0 bc
       -0.02569969 -0.048468612 -0.26066542 -0.027446857
000230 fc 38 60 be a4 64 19 3e 52 4f 19 be 3a f8 1a bc
       -0.21896738 0.14979798 -0.14971665 -0.009458596
000240 eb 42 13 be b6 1f 9a bd ab f6 80 bd 86 c4 66 bd
       -0.14380996 -0.0752558 -0.06297048 -0.056339763
000250 1c e9 4f be 37 f4 80 3d 77 ee 56 be 39 92 2a 3d
       -0.20303768 0.0629658 -0.20989405 0.041643355
000260 41 d4 22 3d b1 31 fc bd c0 d4 37 be 44 3f 7d bc
       0.039753202 -0.123141654 -0.17952251 -0.015456978
000270 46 0f 73 bd d1 73 09 bd 1c 18 df 3c be 6a 29 be
       -0.059340738 -0.033557717 0.027233176 -0.16544625
000280 f7 99 73 be 4c 91 22 bc b6 a4 4a be de 05 24 3e
       -0.23789202 -0.009922337 -0.19789395 0.16017863
000290 ca fc 35 bd 69 fa 57 bc 2c 19 00 be 53 98 4d bd
       -0.04443053 -0.013182261 -0.12509602 -0.050194096
0002a0 c0 cb 39 3e cd 34 71 3d c6 b6 3a 3e 9c 32 8a 3d
       0.1814413 0.058888245 0.18233785 0.06747934
0002b0 49 ea d7 bd 7a f9 a0 3c 71 8c 79 bc 84 d9 0e be
       -0.10542733 0.01965021 -0.015231238 -0.13950163
0002c0 b8 45 ad 3c 31 bb 15 3e b2 db 3b be c8 34 35 be
       0.021151409 0.14622189 -0.18345526 -0.17695916
0002d0 d7 df 92 3d ef 29 e3 bd 38 31 00 be da 4d 7f 3d
       0.071716 -0.110919826 -0.12518775 0.062330104
0002e0 c5 da cd bb 14 3f 8d bd d3 5c 76 bd 64 25 fe 3c
       -0.006282183 -0.06896797 -0.060147118 0.031023689
0002f0 74 e6 39 be a6 a0 6c bd 8f fb 72 be 50 fb 02 3d
       -0.18154317 -0.057770394 -0.23728774 0.03197795
000300 91 f2 c1 bc 30 6c 8e 3d 30 0d c9 bd 2c 31 39 be
       -0.023675235 0.06954229 -0.098169684 -0.18085164
000310 44 cf d0 bd 9a 34 56 bd d3 a0 df 3c 80 7f 03 be
       -0.10195783 -0.05229626 0.027298367 -0.12841606
000320 10 ca 84 bd 85 0b 00 be 94 db 24 be 89 b9 e9 3d
       -0.06483853 -0.12504394 -0.16099387 0.11412341
000330 21 24 7c bd 4a 87 09 be 91 f7 08 be 43 46 6b bd
       -0.061557893 -0.13430515 -0.13375689 -0.057440054
000340 e6 2e 80 bd e6 6c 7a be 6d f7 1a bd aa 8a 8f bd
       -0.06258945 -0.24455604 -0.03783362 -0.0700887
000350 8a 81 ac 3d 2e f1 1b 3d 02 00 3f bd 2f 4f bf bd
       0.08423145 0.038071804 -0.046630867 -0.09341275
000360 b3 e2 a7 be b8 9a 86 be ef 68 3a 3d b2 05 25 be
       -0.32790145 -0.26289916 0.04551023 -0.16115454
000370 8a 1f d5 3b 4f 19 37 3d b0 53 cb bd b7 9e 40 be
       0.006504004 0.04470187 -0.099280715 -0.18810545
000380 c5 32 4d 3b a3 60 79 3d fb 8c eb bd 9e 20 2a be
       0.0031310779 0.060883176 -0.11501499 -0.16614005
000390 21 41 80 3d 2b e0 9d 3d 4c 52 2d bd c1 85 64 3d
       0.06262422 0.07708772 -0.042314813 0.05579162
0003a0 36 6e 38 3d 6f 37 21 be 8e 19 f8 3c 8c e4 6d bd
       0.04502698 -0.15743802 0.030285623 -0.058079287
0003b0 b5 83 58 be f4 9e 75 bd a4 ff 44 3e 3b 30 da bd
       -0.21143992 -0.059966043 0.19238144 -0.106537305
0003c0 48 b5 1a bd 1f b4 ac bc 7e 80 ee bd 65 b8 00 be
       -0.03777054 -0.021081982 -0.11645602 -0.12570341
0003d0 c2 d8 8a bc 0a fc e6 3d f7 28 d6 3d 50 b2 d4 3c
       -0.016949061 0.112785414 0.10457032 0.025963932
0003e0 a9 92 6f bb f9 de 08 bd 91 9b 9d 3c 02 f7 bd 3c
       -0.0036555922 -0.03341577 0.019239219 0.023189072
0003f0 08 49 54 ba 4b da 93 3d 78 66 be bc 7f 8b 63 3d
       -0.00080980407 0.072193705 -0.02324222 0.055552956

arith.constant6 f4 [256]
000000 21 3d 5e bd 10 8a 39 bd c1 b6 14 be b7 5a ad bc
       -0.054257516 -0.045297682 -0.1452284 -0.02116142
000010 f5 58 4b 3b c9 6d f3 bd 3e ae 7f 3c 3c da b3 bd
       0.0031028364 -0.11886174 0.015605507 -0.08781859
000020 95 40 55 bd a2 5c 9e bd 6d c2 e1 bd 8e 1b 32 bd
       -0.052063543 -0.07732512 -0.11023412 -0.04348331
000030 1f 18 0a be fe d2 38 bd 1b 0e ff bc fc 47 d1 bd
       -0.13485764 -0.045123093 -0.031134656 -0.10218808
000040 8b ac 24 be 49 b6 95 bc 0c 4b 7d 39 0b fe bd bd
       -0.16081445 -0.018275397 0.00024155917 -0.092769705
000050 d1 95 61 be 29 27 8a bd 9f 8a 0e be 81 c9 35 bd
       -0.22029807 -0.067457505 -0.13920067 -0.044381622
000060 cc 7d 94 3c f5 47 51 bd 25 51 9b bd 0e f8 c6 bd
       0.01812639 -0.051094014 -0.075838365 -0.097152814
000070 4f 3a 89 bd 03 b0 0a be d1 25 9b bd 3f da 9f bd
       -0.067005746 -0.13543706 -0.07575572 -0.07805299
000080 1d 72 59 bd db 6b 23 bd 06 56 b1 bd ca 66 0f bd
       -0.053087343 -0.03989778 -0.08658986 -0.035010137
000090 2e fa 81 3c 79 99 25 bd c3 42 42 bc 9f 3a 16 be
       0.015866365 -0.040429566 -0.011856738 -0.146708
0000a0 b4 e4 57 bd 24 47 9e bd 2e 20 5d bc 3a a1 bb bd
       -0.052708343 -0.07728413 -0.013496442 -0.09161611
0000b0 a6 29 42 bd 1a 77 f8 bd 7f 96 90 bd 3a 47 5a bc
       -0.047403 -0.12132092 -0.07059955 -0.013322646
0000c0 f7 7c d1 bd 88 97 1f 3a d9 90 dd bc ec 13 be bd
       -0.10228913 0.00060879486 -0.027046608 -0.092811435
0000d0 dc 89 81 bd 65 2b 3c bc 6c 7e 66 bd bc 1c 86 bb
       -0.06325123 -0.011484955 -0.05627291 -0.004092781
0000e0 16 27 a2 3b 1b 35 25 be 45 7e 07 be c1 7a be bd
       0.004948507 -0.1613354 -0.13231762 -0.09300757
0000f0 81 4d 0e bd 6c 3e 62 bd 1a 6d 0d bd dd 81 06 be
       -0.034741882 -0.05523531 -0.034527875 -0.13135476
000100 04 7e f2 bd b7 32 cf bd 7a b8 b0 bd a2 4e 97 3b
       -0.11840442 -0.10117095 -0.08628936 0.004617528
000110 a4 2b 4b bd c8 75 85 bd b6 08 88 bd 7b 73 01 bb
       -0.049602166 -0.065166056 -0.066422865 -0.001975267
000120 19 5e 51 bc ca e1 56 bd e1 fa 3d bd d9 46 54 bd
       -0.012778782 -0.052461423 -0.046381835 -0.051825378
000130 09 2c 8e bd 5a 4b 69 3d cd a4 b0 bd fb 72 a7 bd
       -0.06941993 0.056956626 -0.08625183 -0.08176228
000140 3c 10 be bc 5b 48 2a 3d 5c a5 d2 bd 75 c1 c3 bc
       -0.0232011 0.04157291 -0.10285446 -0.023895958
000150 09 3f 7e bd 49 8a 18 3c 59 c8 b4 bd 06 3e 89 bd
       -0.062071834 0.0093103135 -0.08827276 -0.06701283
000160 00 af ce bb f9 bb f2 bd 4b d4 82 3d 9b 45 15 bd
       -0.0063074827 -0.11852259 0.06388148 -0.036443334
000170 d8 ed aa bc dc 54 b4 bc 9a fb f9 bd cb b7 9a bd
       -0.020865366 -0.02201312 -0.12206192 -0.07554587
000180 50 2f 6d bd 89 6c 6a bc 81 11 28 bc 65 97 6f bd
       -0.05790645 -0.014308103 -0.0102580795 -0.05849399
000190 88 dc 10 3c 67 33 16 3d 92 61 f9 bc 14 95 1b be
       0.008841641 0.036670115 -0.030442033 -0.15193588
0001a0 74 f3 81 bc b8 58 09 be 3c 88 3e bd 65 8c 8b bd
       -0.015863158 -0.1341275 -0.046516642 -0.068138875
0001b0 f5 83 cb bc ef 4d c6 3c 53 b3 67 bd 08 40 56 bc
       -0.024843195 0.024207084 -0.0565675 -0.01307679
0001c0 1c 6a 97 bc 53 82 69 bd c4 80 bc bb 37 35 2f 3b
       -0.018483214 -0.057009052 -0.0057526547 0.00267346
0001d0 7e 85 46 bd 9c 9b bd bd b1 fa 28 3d ca da a4 3c
       -0.04846715 -0.09258196 0.041254703 0.020123858
0001e0 8c d9 a1 bd f4 9f 45 bd d4 14 fe bd a6 55 03 bb
       -0.07902822 -0.048248246 -0.124063164 -0.0020040064
0001f0 c0 5d 9e bd 2a a9 1e be 43 77 6b bd 74 6b 9a bd
       -0.07732725 -0.15494218 -0.057486784 -0.07540026
000200 61 d4 0a be 32 79 04 bc 9c 05 ac bd 9f e6 de bd
       -0.13557579 -0.008085536 -0.083995074 -0.10883831
000210 84 03 88 bd 09 a1 14 be 93 02 b5 bd 29 3a 6f bd
       -0.066412956 -0.14514555 -0.088383816 -0.058405075
000220 7e 25 d7 bb 78 8a 8a bb a0 9c 0d bd 69 6b 80 bd
       -0.0065657487 -0.0042279325 -0.034573197 -0.06270487
000230 b7 96 9f bd 0c 9b 86 bd ba 8a 77 bc 2b 69 a9 3c
       -0.077924185 -0.065725416 -0.015108759 0.02068003
000240 73 7d 66 3b 26 ff 62 bc 6a 84 64 3c ed 67 5e bd
       0.0035169988 -0.013854777 0.013947586 -0.05429833
000250 75 f2 ff bd 28 43 74 3d 89 85 e5 bd 16 c3 23 be
       -0.12497417 0.059634358 -0.112071104 -0.15992388
000260 6c ac 2e bd 6f f6 93 bd f2 68 c3 bc 55 29 8e bc
       -0.042644903 -0.07224738 -0.023853753 -0.017353693
000270 a3 91 06 be c8 6d 28 bd 94 67 a7 bd ec 97 0f 3d
       -0.13141493 -0.04112032 -0.08174053 0.035056993
000280 c4 b0 91 bd 16 07 3e be a8 e5 d7 bd ee b9 8d bd
       -0.071137935 -0.1855739 -0.1054185 -0.06920229
000290 89 49 20 be 70 e8 04 bd 95 8a 8e 3b 5c 42 07 be
       -0.15653051 -0.032448232 0.0043500164 -0.13208908
0002a0 8f 24 59 bd 8a 41 d6 3b 8a 55 0c bd 63 fb ce bb
       -0.05301338 0.0065385746 -0.034261264 -0.0063165887
0002b0 17 b7 1b be 6b 1f 6e bd 7c 09 01 be 57 44 ba bd
       -0.15206562 -0.05813543 -0.12601274 -0.09095066
0002c0 09 ca 56 bd 0a 43 75 bb f7 6f 94 3d 39 e0 fc 3c
       -0.05243877 -0.0037423992 0.07247918 0.030868636
0002d0 87 7e 6b bd 22 80 87 bd 32 04 b7 bd c0 63 e3 bc
       -0.057493713 -0.06616236 -0.08936347 -0.027757525
0002e0 a1 87 9e bd 0f d5 74 bd 88 3a 46 be 17 ed 41 bd
       -0.07740713 -0.0597735 -0.19358265 -0.047345247
0002f0 dd a1 9b bd 45 33 f6 bd 4e 1a a5 bc c8 35 c3 3a
       -0.07599232 -0.12021498 -0.020154145 0.0014893347
000300 46 13 ee bc 39 f8 aa bb 54 59 83 bd e7 78 cc bd
       -0.029061925 -0.0052175787 -0.06413522 -0.09983998
000310 9b 4c c4 bc 7d a7 ad bd 20 7b 12 bd 47 23 c3 bd
       -0.02396231 -0.084792115 -0.035761952 -0.09528213
000320 a3 86 ec bd 17 c9 d9 ba 0b a0 05 bd de bf 7e 3b
       -0.115491174 -0.0016615716 -0.032623332 0.0038871686
000330 bf 9e a0 bd e8 3b d7 bc e9 0f bc bd 61 37 71 bd
       -0.078427784 -0.026273683 -0.09182722 -0.058890704
000340 fd c2 01 bd f5 00 48 3d 3b 9b 0d bd 95 2c 81 3d
       -0.031680096 0.048829038 -0.034571867 0.063073315
000350 41 00 e6 bd 33 ad 55 bd 86 46 0d be cd a4 dd bd
       -0.11230517 -0.05216713 -0.13796434 -0.10822449
000360 c9 a8 65 3c e5 01 35 bd 6b 5d 81 bd 9c 7d 3f bd
       0.014017292 -0.04419126 -0.06316646 -0.04675065
000370 60 ad 08 3c d3 ee 60 bd 28 9b b4 bd 23 7b 95 bd
       0.008342117 -0.05491526 -0.08818656 -0.07298877
000380 16 18 ac bd 0a fb a5 bd 4e 06 50 bd 57 03 86 bc
       -0.084030315 -0.081045225 -0.050787263 -0.016359014
000390 3e 56 16 be 52 65 ae 3c f7 a9 9d bd 88 32 8e bd
       -0.14681336 0.021288548 -0.07698434 -0.06943232
0003a0 4d 0c ec bd b9 b6 4a be 33 b1 8a ba 90 17 0d be
       -0.11525784 -0.19796266 -0.0010581374 -0.1377852
0003b0 ff b6 f2 bc ec 91 af bd c1 8b de bd c2 1c 4e bd
       -0.029628275 -0.08572754 -0.108665 -0.050320394
0003c0 32 3f 68 3d 72 50 51 3b ec c9 17 be 4c d6 1b 3d
       0.056700893 0.0031938818 -0.14823121 0.038046166
0003d0 15 85 7f bd 2c 6c 28 bd 90 fc e1 bd bb 75 11 be
       -0.062382776 -0.041118786 -0.110345006 -0.14205067
0003e0 53 35 ac bd 87 07 c3 bd 29 6c f7 bd 10 e5 e4 bd
       -0.08408608 -0.0952292 -0.12081177 -0.11176503
0003f0 26 65 6e 3c 7c 9b 1d be 29 15 28 bd 3e c7 8d bd
       0.014550483 -0.15391344 -0.041035805 -0.06922768

sequential_1/batch_normalization_1_2/batchnorm/mul f4 [64]
000000 b0 26 26 41 b0 ae f2 3f 46 81 15 3f 9f e7 4d 40
       10.384445 1.895956 0.5840038 3.217262
000010 ec 4d 6f 40 de 17 ba 40 5c 2e a4 40 f4 6f 9e 40
       3.739131 5.8154135 5.130659 4.951166
000020 6c c9 2f 3f 72 0c e7 3f 79 55 33 40 dd 55 28 40
       0.6866672 1.8050673 2.8020918 2.6302407
000030 53 c5 39 3f 5f 4f 28 40 6d 1b 0c 40 a0 b1 d5 40
       0.7256672 2.6298444 2.189174 6.6779327
000040 51 72 26 40 7e a8 82 3f 57 f9 ac 40 b8 06 b8 40
       2.6007273 1.020767 5.405437 5.75082
000050 a9 89 89 40 e7 b2 b4 3f 91 4f a8 41 25 b1 aa 3f
       4.298054 1.4117097 21.03885 1.333531
000060 6d 1d 8c 40 b1 b1 d2 3f ca ba 9b 41 7c 4c 8f 3f
       4.378592 1.6460477 19.466206 1.1195216
000070 52 20 00 3f c1 e4 36 40 35 09 03 41 8e 69 df 40
       0.50049317 2.857712 8.189748 6.981635
000080 ea 34 0a 3f ba b2 26 40 d5 20 c7 3f 2b 35 db 40
       0.5398699 2.6046586 1.5556895 6.85024
000090 f3 e2 8b 40 7f 09 6b 40 3e b7 7f 40 0f 21 81 40
       4.371454 3.6724546 3.9955592 4.0352855
0000a0 7e de 9a 3f 17 1b 4b 40 5c 6d bf 3f 45 1a 31 3f
       1.2099149 3.1735284 1.4955249 0.6918071
0000b0 06 6a 53 40 8d ea c1 40 60 64 25 40 02 3f 97 3f
       3.3033462 6.0598817 2.5842514 1.1816103
0000c0 8e fa 19 41 db e1 dd 3f 7b e8 23 40 2b fe 08 41
       9.623671 1.7334551 2.5610645 8.562053
0000d0 92 c3 b0 40 b4 bc 3b 3f d0 d1 a0 3f f4 ad 7e 40
       5.5238733 0.73334813 1.256403 3.9793673
0000e0 74 40 c6 40 88 22 71 40 75 85 90 3f c5 7d 4b 40
       6.195368 3.7677326 1.1290728 3.1795514
0000f0 6c 22 b9 40 f2 0e 6b 40 f4 67 4f 41 01 c2 74 40
       5.785452 3.6727872 12.962879 3.824341

sequential_1/batch_normalization_1_2/batchnorm/sub f4 [64]
000000 a8 ed 9f be f2 f2 9e be 0f 1c 6b be e5 13 db be
       -0.31236005 -0.31044728 -0.22959922 -0.42788616
000010 25 97 c5 be 55 89 9a be 9d 1b c8 be b8 06 ab bd
       -0.38591877 -0.301829 -0.39083567 -0.08350891
000020 4d ef 41 be b2 73 55 be 73 43 8f be c0 ce 58 bc
       -0.18938942 -0.20844916 -0.27981147 -0.013232887
000030 e9 05 73 be 36 2a a3 be 6e 08 f5 be 68 83 8f 3d
       -0.23732723 -0.31868142 -0.47857994 0.07007486
000040 38 88 9d be 46 93 e5 be 92 03 81 3d 80 51 9f bb
       -0.3076799 -0.44838923 0.06299509 -0.0048620105
000050 bd b9 45 be 78 69 99 bd 24 b5 5c bb 43 f0 a2 be
       -0.19309135 -0.0749082 -0.0033677304 -0.3182393
000060 b8 13 9a be 46 0e 85 be 4e c4 89 3e e0 6a 4f be
       -0.3009317 -0.25987452 0.2690758 -0.20255613
000070 ab ad 4b be 88 d1 6b be 80 ae 97 bc 73 57 5c be
       -0.19890468 -0.23029149 -0.018515825 -0.21517734
000080 e0 cc 2e 3d f8 0a ad be e5 d2 fa bd ba 3d bf be
       0.042675853 -0.3379743 -0.12247256 -0.3735178
000090 6d 7d 29 bf b8 62 d6 be 30 67 df be f9 f7 c6 be
       -0.6620701 -0.4187219 -0.43633413 -0.38861063
0000a0 3c e2 9f be 36 5b 32 be 1f 81 c0 be 5f c4 6c be
       -0.3122729 -0.17417607 -0.37598512 -0.23121785
0000b0 50 91 a5 bd 0a e7 f8 bd c8 49 d5 be 82 e0 fb bd
       -0.08084357 -0.12153442 -0.41657853 -0.12298681
0000c0 d8 92 e2 3c 62 f7 2d be f7 6a 04 bf 0c cc 0d 3e
       0.027657911 -0.169889 -0.51725715 0.13847369
0000d0 42 eb 13 3e 03 fd a7 be 7e 93 d2 be e3 41 59 be
       0.14445212 -0.3281022 -0.41128153 -0.2121654
0000e0 96 94 82 be 70 1d e2 be 18 c4 bb be 98 7a d0 be
       -0.25503987 -0.44163084 -0.36673045 -0.40718532
0000f0 c3 fe 4e be a2 85 87 3d 20 57 b0 bb c6 ec 71 be
       -0.20214371 0.06617285 -0.00538148 -0.23625478

sequential_1/batch_normalization_1/batchnorm/mul f4 [32]
000000 29 a2 75 41 5a a4 fc 41 89 64 c9 41 22 90 a7 41
       15.35209 31.58025 25.17409 20.945377
000010 01 3f d9 41 b7 8f fd 41 e8 9e cd 41 b2 9e d3 41
       27.155764 31.695173 25.70259 26.452488
000020 8b 10 11 42 72 a6 ff 41 c1 c9 fa 41 b7 99 af 41
       36.266155 31.956272 31.348513 21.950056
000030 2d 74 ae 41 0f 66 bd 41 39 64 fb 41 f6 d4 11 42
       21.806726 23.674833 31.423937 36.45797
000040 b2 39 f9 41 7b ef 52 41 b7 e1 97 41 4c 60 04 42
       31.153172 13.183467 18.985212 33.09404
000050 b3 eb f3 41 e8 97 fc 41 5e c9 01 42 b8 ac 28 42
       30.490088 31.574173 32.446648 42.16867
000060 e1 65 98 41 50 f6 ee 41 6b 6e f9 41 6d 64 19 42
       19.049746 29.87027 31.178915 38.348072
000070 f7 e2 f4 41 90 80 f4 41 63 8b b6 41 16 e8 dc 41
       30.610823 30.562775 22.81806 27.613323

sequential_1/batch_normalization_1/batchnorm/sub f4 [32]
000000 90 69 2b c0 cd f6 17 3d c1 88 e6 bc f6 d8 95 bf
       -2.678318 0.037100602 -0.028141381 -1.1706836
000010 e3 a4 73 bf 60 cb 72 bc c0 0f fd be 76 04 a9 bd
       -0.9517347 -0.014818996 -0.4942608 -0.08252804
000020 a4 29 73 bf 4d 3d 0c 3c a7 05 bd 3b 1a 23 ad 3c
       -0.94985414 0.008559537 0.005768496 0.021134902
000030 e8 53 15 bf aa d7 f4 bf 35 ad 0c 3d 20 31 f9 bf
       -0.58331156 -1.9128315 0.03434487 -1.9468117
000040 41 cc 19 bc c7 ab 03 c0 85 4a 14 c0 03 85 26 bf
       -0.009387077 -2.0573595 -2.3170483 -0.6504671
000050 73 33 b6 bc b0 2f 22 3b 97 83 8a 3d 97 b4 9e bf
       -0.02224133 0.0024747662 0.0676338 -1.2398862
000060 78 dd 15 bd 58 1d 87 3b 31 27 2d bc 4c ee 71 bf
       -0.036588162 0.004123371 -0.010568426 -0.9450424
000070 54 e8 b7 bc 65 d3 fb 3a c9 62 98 3c 02 91 7e 3c
       -0.02244965 0.0019212781 0.018601792 0.015537502

sequential_1/batch_normalization_2_1/batchnorm/mul f4 [128]
000000 1d 8d d2 3d 37 55 3e 3e 1d 33 5c 3e 4d 3d 4c 3f
       0.102808215 0.18587194 0.21503873 0.7978104
000010 06 ff 9d 3e 47 76 37 3f 9a 40 e2 3e c2 94 57 3e
       0.3085863 0.7166485 0.44189912 0.2105284
000020 e3 19 f7 3d c8 da e1 3d e6 b3 c9 3e 6c fa 1a 3e
       0.120654844 0.11028057 0.39395064 0.15134591
000030 0f b4 b6 3e 5b 2b 19 3f a8 79 7f 3e 7d d8 86 3d
       0.3568425 0.5983178 0.24948752 0.065842606
000040 d5 66 c1 3e d2 c4 c5 3d 5a 8e 90 3d 10 a8 37 3e
       0.37773767 0.09656681 0.070584014 0.17935205
000050 37 6c 87 3e 9f e0 a7 3e dd 20 c2 3d 49 0f da 3d
       0.2644975 0.3278856 0.094789244 0.10647447
000060 e9 dc ce 3e e7 61 19 3e 2e e9 8d 3e 7a 9f 42 3e
       0.40402916 0.14978753 0.27716964 0.19006148
000070 e7 2f 5f 3e 81 98 86 3f e0 1e 78 3e 82 08 3e 3e
       0.21795617 1.051529 0.24230528 0.18557933
000080 80 68 57 3f 3d 2b 8b 3e 54 59 20 3f 76 b8 0e 3f
       0.8414383 0.27181426 0.62636304 0.55750215
000090 b7 81 c5 3e 72 fb a9 3f 91 64 fc 3d 16 ca da 3e
       0.38575527 1.327986 0.12323869 0.42732304
0000a0 b4 d5 a2 3f 35 2d 8f 3e 9d 91 20 3f db 38 22 3e
       1.2721467 0.27964178 0.6272219 0.15842001
0000b0 3e a7 94 3d c2 c3 55 3f 4d 5e 24 3e 06 ed 91 3e
       0.072584614 0.8350183 0.16051598 0.28501147
0000c0 9e b6 5a 3e 1f 4e 00 3f e9 13 ba 3e ad e8 44 3f
       0.21358725 0.50119203 0.36343315 0.76917535
0000d0 fe b9 8f 3e 5e 25 ed 3e bd 4f ad 3d 36 5e d6 3f
       0.28071588 0.4631757 0.084624745 1.6747501
0000e0 f5 35 e8 3d ea 7e d8 3d ad b5 b3 3d 78 e9 9a 3e
       0.113384165 0.10571082 0.08774886 0.30256248
0000f0 ef 06 b3 3e 6f d8 96 3e 8a 32 09 3e 05 ad 8b 3d
       0.34966227 0.29462 0.13398185 0.0682011
000100 ec bc df 3d d0 6f d4 3d 14 2e 93 3e 6f 3c a1 3e
       0.10924706 0.10372889 0.28746092 0.3149142
000110 d7 94 e6 3e f4 f9 a6 3f f2 10 78 3e 8b 56 7e 3e
       0.4503543 1.304503 0.24225214 0.24837701
000120 50 1c 08 3e 4c 3d c8 3e 4d 7a ef 3d 6e 24 f1 3e
       0.1329205 0.39109266 0.11693249 0.47098106
000130 cd bb e3 3e 9a 9b 42 3f c6 ff a9 3d 3e 13 3c 3e
       0.44479218 0.7601868 0.08300738 0.18366715
000140 30 ed 32 3e 88 1f 25 3e b3 ef a4 3e 54 f5 85 3e
       0.17473292 0.1612531 0.32214126 0.26163733
000150 35 45 7d 3e 7d ab b9 3e f3 f3 26 3e cd 86 ab 3d
       0.24733432 0.36263648 0.16303997 0.083753206
000160 b8 62 40 3f b1 81 1a 3f 84 46 01 3e f1 e4 a5 3d
       0.7515063 0.60354143 0.12624556 0.08100308
000170 b1 b2 8e 3f 94 53 b6 3e d6 c2 78 3e 71 fb 39 3e
       1.1148282 0.3561064 0.24293074 0.18162324
000180 f9 56 fc 3d 12 1e ec 3e 31 5c c1 3e e7 35 c8 3d
       0.12321276 0.46116692 0.3776565 0.09775906
000190 9e 47 34 3f cf 17 e6 3e 83 38 f4 3d 3f 79 b4 3d
       0.7042178 0.4494004 0.11924841 0.08812188
0001a0 5b ea 9a 3e be a2 cd 3e a5 29 80 3e 3b 29 12 3e
       0.30256924 0.40163225 0.25031772 0.1427354
0001b0 52 1c 04 3e 2b 4b 9e 3d ae 99 71 3f 44 cb 2b 3f
       0.12901428 0.07729181 0.9437512 0.67107034
0001c0 d6 eb 32 3f 5a 3d ad 3d ba 9a ba 3e 7e 9b a9 3e
       0.6989111 0.084589675 0.36446172 0.33126444
0001d0 72 9c cd 3d 0b 62 09 3e 87 c5 43 3f 5d 7c 59 3e
       0.10039605 0.13416307 0.7647328 0.21238847
0001e0 3b e0 97 3e 12 2d 1a 3e ca ea ff 3d 72 32 14 3e
       0.29663262 0.15056255 0.12495954 0.14472368
0001f0 21 ee 04 3f 9d ac b2 3e 0e f2 6e 3e 87 70 32 3e
       0.51925856 0.34897318 0.23334524 0.17425738
