models/eye_model.tflite (tflite, 638852 bytes, 9 tensors)

arith.constant f4 [128]
00000000: f2f6 34bd ce4b cebc 8760 f9bd 664e 3dbd
00000010: 3d99 5abd 537f 89bd e625 c2bb ae6c 27be
00000020: 2ed1 efbd d45a 31bd 12a4 ccbd a2e3 06bd
00000030: ab8e fabc 93b1 973a 69d1 c7bd be33 48bd
00000040: 93a1 32bd 372b ffbc 25ca 33bd 8982 0bbd
00000050: d209 b2bc 8f6f e2bd 426d f9bc 41a5 abbd
00000060: 4c68 1bbe a751 15bd e894 62be 43ed d73c
00000070: 093e 4abd feab 1f3e 40c7 68bc 2a5a 82bd
00000080: dacb 5cbd 81fa 8ebc dfb7 2ebd b5b9 c5bc
00000090: 199b 24bd 0f0d c9bd 38ff f2bc e6eb 6e3b
000000a0: da9e e2bd 4935 13bc 8b22 37bf 470d c5bd
000000b0: d65f 13bd 9bd2 85be c40b 07bd f3ed 113c
000000c0: 879a 87be f7a3 07bd fbaf 12be 9e80 f8bd
000000d0: f9b0 39bd 9584 50be d896 59be 4e90 03bd
000000e0: f58f 063e b3c7 70bd ef04 1fbd 48ed 14bd
000000f0: 4bd4 dd3c a1ab 493a dac5 e33b 6365 9ebd
00000100: d27b aabd aba1 163e 5bd3 8b3d 836d 51be
00000110: d8a3 4bbd 05af cdbd a7ff 2fbc 240c 24bd
00000120: ca8e 02bb aab1 67be e935 39bd cbef a3bd
00000130: c6ab 20be bd5a a33d 8e11 b93d 06c0 87bd
00000140: be2a 74bd 8676 35bd e8ce 0bbd ade9 bcbd
00000150: c3d2 703e a9e6 c4bd 0ed6 65bd 8eab c8bd
00000160: 09f6 fdbd bcbd 4a3d b0b3 83be 8cf5 f43d
00000170: 140c 81bc f538 40be d078 dcbd e9f4 a5bd
00000180: 6901 53bd 9f79 35bd 9edc 15bd 1168 ecbd
00000190: 882a 07bd 3b02 34bd 47e8 9b3d 740a 33be
000001a0: bc07 4e3c ca35 e33b 3ab4 12bd 8e52 7ebd
000001b0: 6cbe e2bc f2c0 b7bd ec23 61bd 9b47 a4bc
000001c0: ee6d bbbd cde3 e2bc aac6 d9bc c507 10bd
000001d0: 0bcf 46be 5dc1 4bbd 7bde 84bd 85a7 883c
000001e0: 18b1 8ebe 1125 01bd 08d6 3dbd ad46 55bc
000001f0: 43e9 66be dd52 34bd 8571 a1be 6c0e b7be
-0.044180818 -0.02518263 -0.12176614 -0.046217345 -0.053368796 -0.06713738 -0.005924928 -0.16350052
-0.1170982 -0.04329951 -0.099922314 -0.03293193 -0.030585608 0.0011573307 -0.09756739 -0.04887747
-0.04361112 -0.031148536 -0.043893952 -0.034060035 -0.021733198 -0.11056434 -0.030447606 -0.08381129
-0.15176505 -0.036454823 -0.22127116 0.026358252 -0.049375568 0.15592954 -0.014207661 -0.06364854
-0.053905345 -0.017453434 -0.042655822 -0.024136404 -0.040186975 -0.09816944 -0.029662713 0.0036456524
-0.11065455 -0.008984872 -0.71537083 -0.09621673 -0.03598007 -0.26137242 -0.032970205 0.008906829
-0.26485083 -0.033115353 -0.14324944 -0.12133907 -0.04533479 -0.20363076 -0.21248949 -0.03212004
0.13140853 -0.058784198 -0.038823064 -0.0363591 0.027078768 0.0007693116 0.006951076 -0.07734182
-0.08324398 0.14710109 0.06827422 -0.20451932 -0.0497168 -0.10043148 -0.010742105 -0.04005064
-0.0019921535 -0.22626367 -0.04521743 -0.08004721 -0.15690526 0.07976291 0.090365514 -0.066284224
-0.059611075 -0.044302486 -0.034132868 -0.092242576 0.23517899 -0.096143074 -0.05611234 -0.097983465
-0.12400443 0.04949735 -0.25723028 0.11960897 -0.01575283 -0.18771727 -0.10765231 -0.081033535
-0.051515017 -0.04430544 -0.03658735 -0.115432866 -0.032999545 -0.04394744 0.07612663 -0.17484456
0.012575086 0.0069339024 -0.03581641 -0.06209045 -0.02767869 -0.08972348 -0.0549659 -0.020053675
-0.09151827 -0.027696515 -0.026583988 -0.03516366 -0.19414918 -0.049744952 -0.06487747 0.016681442
-0.27869487 -0.03152949 -0.046346694 -0.013017339 -0.2254992 -0.044024337 -0.3153192 -0.3575319

arith.constant1 f4 [64]
00000000: cf5b 633d 083b 163d 684e 413d 6f3e 2aba
00000010: 0586 163e 8c46 983d a850 97bb 70e0 563d
00000020: e20c 9e3d 3c89 4dbd bd0c 30be 27f5 32bd
00000030: 2382 953d 7d18 613d fe01 6839 3a34 65bc
00000040: 9838 c2bd 74e2 cc3c f46a 6cbd ac25 7ebd
00000050: c5b5 5dbd c9e1 f83d a290 0dbd 511c 37bd
00000060: 4724 f6bc 5760 b03d d313 d1bd 630d 87bd
00000070: e3f5 ed3c 3913 a9b9 e96c ebbd 8e21 29be
00000080: ab68 9b3c 7d53 e4bd 7eca 44bd 222f 8fbd
00000090: 8d46 1bbd 7b6e 71bd 4ea5 84bc 3389 0abd
000000a0: e40e 75be 0869 ccbc 28bd 403d c6fa 5dbd
000000b0: 06e8 f73d ab43 0abe 83b6 41bd a365 3e3c
000000c0: 3539 fcbc 8b75 21bd fd5f a3be 1564 83bd
000000d0: 6b4b e7bc 85f7 a8bd a96b 3ebd c607 113e
000000e0: 7213 b7bc f0f3 d2bc 9219 c33d f445 48bd
000000f0: 380d 62bc c237 11bd e3e6 92bc 08b7 a5bc
0.055507477 0.03667739 0.047193915 -0.00064942887 0.14699562 0.07435331 -0.0046177693 0.052460134
0.07717301 -0.050179705 -0.1719236 -0.043690827 0.07300212 0.054954994 0.00022125986 -0.013989503
-0.09483451 0.025010325 -0.057719186 -0.062047645 -0.054128427 0.1215244 -0.03456176 -0.04470474
-0.030046595 0.08612125 -0.10208859 -0.0659435 0.029047912 -0.00032248514 -0.11495382 -0.16516706
0.018970808 -0.111487366 -0.048044674 -0.06991412 -0.03790908 -0.058943253 -0.016192105 -0.03382225
-0.23931462 -0.024952427 0.047055393 -0.054194234 0.12104802 -0.13502376 -0.047293197 0.011620912
-0.030788997 -0.03941874 -0.3190917 -0.064155735 -0.028234204 -0.082503356 -0.04648939 0.14163122
-0.02234814 -0.025751084 0.095263615 -0.048894837 -0.013797097 -0.035453565 -0.017932361 -0.020228878

arith.constant2 f4 [128, 3, 3, 64]
00000000: b293 7d3b 3f18 54bd 2a4a 153c e11d 74bd
00000010: 5f27 ffbc ee65 0abd d588 1fbd df1e 97bd
00000020: 778a c4bc 14e7 f73c 72fa 723d 7325 59bd
00000030: 3aac e4bc 628a 31bd d3ac 113d 2115 70bc
00000040: 1ff7 8cbd 27ec a43c 7dd9 75bd 8217 7e3c
00000050: 92d7 2cbd 5dd7 653c dcbf 17bd 24b2 3cbd
00000060: 6633 093d c66e 59bd 0337 24bd 2e8e 96bc
00000070: 17dd 65bb 7be5 6bbd 6a46 f6bc e569 3e3d
00000080: 4e81 98bd ceac d43c 39bb 5fbd 4d72 babc
00000090: 236d 523d 3b68 c1bc a060 95bd 0cdb 5a3c
000000a0: 926a 433d 54a1 373c 5980 8bbb b82a c2bc
000000b0: b306 c6bd 3a6a 5f3d dd13 5abd 4e24 90bd
000000c0: 781d f03b 375e 633d e6e0 f53b d626 6dbd
000000d0: ae7d c0b9 f5b5 e6bc 5e96 083b 5b4a 55bd
000000e0: b474 5c3c 99a9 013d f65c ebbb 66ec 84bc
000000f0: bb83 edbc 2351 9a3c e51d 29bd 3047 6fbc
00000100: d173 fdbb 6e0f febc 0e18 cdbd b2a5 55bd
00000110: 2fcd 9c3b b57e dabc 0475 2ebd 4232 c2bb
00000120: 6e70 93bd 3651 4c3d f91f 4d3d ad50 013d
00000130: 1eed 8ebc b4d6 dabc 0290 04bd 816b 6dbd
00000140: 4a3b 8ebd 0946 cebc d673 6bbd cf95 6fbb
00000150: be22 f4bc 0795 ba3b 0e6c b5bc 7529 293d
00000160: 23b6 c83b 5ea2 6fbd 5080 093d b1fe 573d
00000170: ca3f 433c cc99 f03c 6343 8bbd 8590 1bbc
00000180: a58a 83bd bd94 41bd 59a7 35bd f82e a03c
00000190: 48be 2cbd e877 adbc 522d aebb 12fd 92bd
000001a0: b64b 2e3c 63f6 073d 0580 61bd 2410 1c3d
000001b0: 9596 d83b e271 7dbc 0a81 3fbd 3abb 053b
000001c0: 72e5 da3c 800b c8bc 964f 9d3c 5c2c c2bc
000001d0: d11e a73c 59db d73c 69b1 62bd af80 8abd
000001e0: 7708 8abb 2cca 81bd 6394 19bd d07b 1e3d
000001f0: 5e66 873c ea96 9abd 1208 de3c 04b3 313c
00000200: 1bf5 b03b 1a67 21bd 4a3e 19bd 2039 78bd
00000210: 7b9a 193a a70e 133c 6041 89bc be21 323a
00000220: 2d57 3ebd 629a d7bb 3003 51bc a578 503d
00000230: 1f05 f7bc 205b 083d 5a76 80bd 8a44 2cbd
00000240: 6cd6 223c 4d85 c7bc 7dbe 303d 2280 223d
00000250: 7808 763c 3a61 38bd 54a7 5f3d e0d8 97bb
00000260: f763 0fbc 5a80 f83c 511f 183d 69ff 57bd
00000270: 0328 96bd f40e ddbb 9046 313d d325 4c3c
00000280: 440d c0bd 9c61 413c 5d5b 503d afd8 19bd
00000290: 7771 003d 7b04 d2bc fd73 483c b87f 02bd
000002a0: 5ffb 2c3d 3920 143d afc2 b63c aba9 513d
000002b0: 9479 15bd 2a6c 293c e0c3 d5bc 48ae 92bb
000002c0: 43a4 623d 2567 f9bc 6eaf 09bd 412f 63bd
000002d0: f26e 55bd fde0 fd3c a855 b73c 423d 8137
000002e0: e71f 003b 817f db3c 38ac ad3c 2045 25bd
000002f0: 28d2 cfbc 02f6 81bd b92b 363d 98e8 cbbc
00000300: c6c9 65bd 999a 863c 6e65 1fbd 4909 6fbd
00000310: 9684 d33b 7689 a8bd c593 0dbd 8d11 96bc
00000320: 7da7 8dbb efba 00bd 28b4 16bc c4d6 06bc
00000330: ae24 933c 59d4 62bd 6b07 a0bd 379d 4ebc
00000340: 3cb4 21bd b0c1 73bd 0968 33bd a714 6abd
00000350: f276 8abd 58f7 adbd 5dd6 95bb 940e 9f3c
00000360: 3817 103d afa3 1f3d 3541 dc3c 5ffd 1cbd
00000370: b5dc 9cbd a12c 0a3d f909 55bd a6d0 2c3c
00000380: 4674 51bc 7028 65bd 2937 553d 0a36 25bd
00000390: a907 12bd 921b 50bd d4c1 35bd 9855 ccbc
000003a0: f040 0abd b303 593d 0d8e 24bd f81e 81bc
000003b0: 84f3 02bd 2b51 6bbd 2ecf df3c 7cca 24bd
000003c0: 20c2 ca3b 164e 08bd 6938 e4bc 83c4 e4bc
000003d0: be97 583d 51ec 113d 6c5d 62bd e9ed 063b
000003e0: 1813 f2bc 53dd 44bd 1a94 09bd 4447 16bd
000003f0: f089 08bd 2d94 a2bd b9e1 4d3d e404 033c
0.003869277 -0.051780935 0.00911192 -0.059598807 -0.031146703 -0.033788614 -0.038948853 -0.07378935
-0.023991806 0.030261554 0.059320875 -0.05301423 -0.027914155 -0.043344863 0.03556521 -0.014653475
-0.06883072 0.020132137 -0.060021866 0.015508534 -0.04219777 0.014028397 -0.037048206 -0.046068326
0.033496283 -0.053084157 -0.040091526 -0.018378343 -0.0035074407 -0.057591897 -0.030062873 0.046487708
-0.07446538 0.025961306 -0.05462191 -0.022759581 0.051373612 -0.023609271 -0.072938204 0.013357889
0.047709055 0.011207897 -0.0042572436 -0.02370201 -0.096692465 0.054544665 -0.0532416 -0.070381746
0.0073277317 0.055509772 0.0075036166 -0.057898365 -0.00036714732 -0.028162936 0.002084158 -0.052072864
0.013455559 0.03165588 -0.0071827127 -0.016226005 -0.028993478 0.018837517 -0.041288275 -0.014604375
-0.0077347537 -0.031013217 -0.10014354 -0.052159972 0.004785202 -0.026671747 -0.042592064 -0.0059264014
-0.07199179 0.049882136 0.05007932 0.03157108 -0.01744705 -0.026713707 -0.0323639 -0.05796385
-0.06944902 -0.02517988 -0.057483517 -0.0036557799 -0.029801723 0.005694035 -0.022146251 0.041299302
0.006125228 -0.058504455 0.033569634 0.052733127 0.011917064 0.029370211 -0.06799962 -0.009494905
-0.06422929 -0.04726099 -0.04434905 0.019553646 -0.042173654 -0.02117534 -0.005315461 -0.071771756
0.010638168 0.033193957 -0.05505373 0.03810133 0.0066097477 -0.015469046 -0.04675392 0.0020405785
0.026720736 -0.024419546 0.019202989 -0.023702793 0.020400437 0.02634971 -0.055344973 -0.06762826
-0.004212435 -0.06337389 -0.03749503 0.038692296 0.016528305 -0.07548316 0.027103458 0.010845903
0.0054003126 -0.039404966 -0.03741292 -0.060601354 0.0005859506 0.008975661 -0.016754806 0.0006795189
-0.046469856 -0.006579683 -0.012757108 0.050896306 -0.03015381 0.03329003 -0.06272574 -0.04205755
0.0099388175 -0.024355555 0.043150414 0.03967298 0.015016668 -0.045014597 0.054602936 -0.004634008
-0.008751861 0.03033464 0.03713924 -0.052733812 -0.073318504 -0.0067461673 0.043280184 0.01246019
-0.0937753 0.011803057 0.05086838 -0.03756016 0.03135821 -0.025636902 0.012234685 -0.031860083
0.042231914 0.036163542 0.02230963 0.0511872 -0.0364929 0.01034073 -0.026094377 -0.0044763424
0.055332433 -0.030444691 -0.03361457 -0.055464987 -0.05210776 0.030991072 0.022379711 1.5406524e-05
0.0019550265 0.026794197 0.021200284 -0.040349126 -0.025368765 -0.063457504 0.04447529 -0.024891183
-0.05610063 0.01643114 -0.03891509 -0.058358464 0.0064550145 -0.082293436 -0.034564752 -0.018318916
-0.0043229447 -0.031428274 -0.009198226 -0.008229915 0.017961826 -0.05537829 -0.07813915 -0.012610725
-0.039478526 -0.059510887 -0.043800388 -0.0571486 -0.06760968 -0.08494443 -0.0045726732 0.019416131
0.035178393 0.03897446 0.026886562 -0.03832757 -0.07659284 0.033733968 -0.052011464 0.010547793
-0.012784069 -0.055946767 0.052054558 -0.04033474 -0.035651837 -0.050807543 -0.044374302 -0.024943158
-0.033753335 0.052982043 -0.040174533 -0.015761837 -0.031970516 -0.057450455 0.02732047 -0.040232167
0.0061876923 -0.033277594 -0.02785893 -0.027925735 0.052879088 0.03562576 -0.055264875 0.0020588583
-0.02955012 -0.048062634 -0.033588506 -0.036689058 -0.033334672 -0.079384185 0.050264094 0.0079967715

arith.constant3 f4 [64, 3, 3, 32]
00000000: bb2c 663e 92b5 8c3e 6d60 c1bd cf87 56be
00000010: 0b37 973d 1af5 013e 264b 9cbd dd9a a23e
00000020: 3ac3 57be 3245 c53c 4d80 9bbd 5e92 5cbe
00000030: 7b7e 05be 786f 14be 3e86 8abd a2ca db3e
00000040: 728f 9f3e 125e 6bbe 365b c8bd c301 26be
00000050: 4034 7bbc ceab 01be 870d 243d c5a1 c6bd
00000060: 94ab c03e d5eb 6e3e a22b e03c a7da 923e
00000070: 3c51 f93e 86a2 b93c 1890 7dbe 5bbe a63e
00000080: a91d b8be eb14 ebbe 3491 dc3c da97 0fbd
00000090: 4fb3 a7be b7fe 813e 8951 8ebd a528 99be
000000a0: 060f 4ebd 643f 75be 6cbb 05bc f9a3 e3bd
000000b0: ceed c3bd 1ff6 b2be 89a2 623d 3c95 133e
000000c0: 9cbc c53e 9497 25be 9f26 42bd a7cc 15be
000000d0: d089 283d e7f4 573e c93e a3bd 3da6 a2bd
000000e0: 064a 3f3e 0db0 8d3e 2f06 9bbe 7b27 82be
000000f0: 73c9 e63d a9a2 a3bd b88d 00bf f2b7 823e
00000100: 5c99 9abd 32e2 15bf bff9 673d 241a bbbd
00000110: 869b bebe dfd9 a73d 6ad7 f7bd 3130 2fbf
00000120: 6f0e 86bc 640b 8fbe 4ce9 1bbe 9d3a 5abe
00000130: 3eae c1bc 2f90 5ebe ae2c 823d f0e5 f6be
00000140: f250 39be 23b4 80bd e2a7 79be 595c 22be
00000150: 3274 533c c2f6 563e 2df6 31bd 261f 58bb
00000160: 494e 44be 009c c7bb afda 54be 5850 3cbf
00000170: 9e0d febd 5972 933c 4150 47be 77fb 99be
00000180: 9100 7c3e 3f40 6e3e 8c18 3abd 35c1 20bd
00000190: be61 103e 0f26 acbc c9d0 aabd 8d8e 403e
000001a0: 5bf7 bbbd 74ca 66be b389 fabd 6e38 1a3d
000001b0: 1e9b 1d3c 5f83 803c a43f a53d 93be cdbc
000001c0: cf38 10bf c793 763d 8597 9fbe 150f 57be
000001d0: dbed 33bd 39f2 89be e40d 33bc 7312 80bd
000001e0: 8bbf b5be d669 41be 62cd ad3d 0799 913e
000001f0: 2e07 1ebf dd3f c9bd 8637 533e 5675 fbbd
00000200: 111f 4fbd 2775 ca3d 4413 81bb 8bec babc
00000210: 19c5 a83d 14fa e1bb b613 3c3d df95 b23e
00000220: 77b1 5a3d 2270 ba3a 88ac a13e b328 323e
00000230: bd84 f2bd 55b1 553e 6a57 083d f447 353e
00000240: 97c1 e73e 4fc8 d5bd 96a4 3e3e cbef a1bd
00000250: ea72 543d db4a 04be 4581 0cbd 31a2 7ebd
00000260: 7a0d 0cbe f6cd 4e3d 5d2f 5d3d 7026 dd3e
00000270: be04 9cbd 6d6e 85bd 81e9 6b3e c119 5c3e
00000280: b528 7bbe 1cc5 b8be a4c2 7dbd eee9 f1bd
00000290: 61cb 05be a582 94bd c419 d93d 4067 9c3c
000002a0: c4d5 943d de69 4dbd 9d0c 613e 3897 803e
000002b0: d5c5 bebd be56 a7be 7b92 6bbd afac d2bc
000002c0: 0ef7 a23e 9ad2 c23c 4a9c d83e 91bb 083d
000002d0: 8089 5ebd ee78 a7bd c1d6 a2bd bb0d 69bd
000002e0: 999e 55be 8050 383e a447 9cbe 36dc e43d
000002f0: 701b a2bd 7bca edbd 6e2f cebd 55e4 45bc
00000300: 0ad3 333e c878 8bbe ecf4 2ebc 3a88 a63c
00000310: b530 11bd 7ef3 9ebd a1a2 3d3d 7053 b3be
00000320: feb2 4f3d 2e9a 22be 7df9 8f3d 33aa f33c
00000330: 11eb 513b 092c 08be ad00 083d 0f75 e7bd
00000340: 3c3a 27bd b92f dd3d a6d1 f2bc e363 20bd
00000350: 17c6 16bd e97e 2ebe 4bab 40bd e5d8 bc3d
00000360: 4dc5 c3be bfeb 3cbb a204 8ebb d4cf b4be
00000370: 7510 ebbd e981 903d 2e08 3cbc 371a a4be
00000380: c196 023e 6bc2 66bd c238 b23c 5b82 333e
00000390: 2aff 643d 3be1 483d 7744 7bbc ed25 debc
000003a0: 6333 dcbb 8bcf 0b3d 7d95 66be ba26 e7bd
000003b0: c55a 5c3e 56e6 1f3e 581a 913d 76e6 073e
000003c0: 3f80 f3be 2e66 833e 2a93 dfbe a0bd 46bc
000003d0: eb4c 073d 7892 7abe 1a4d 8fbd a102 3b3d
000003e0: 0bcc 97be 407d 8ebe 0484 563e 1d13 7cbd
000003f0: 00dc 71be bf91 123d de41 3b3e 993b 37be
0.22478001 0.27482277 -0.0944222 -0.20950244 0.073835455 0.12691155 -0.07631521 0.31758776
-0.21070567 0.024080846 -0.07592831 -0.2154021 -0.1303653 -0.14495647 -0.06763886 0.42928034
0.31164128 -0.22985104 -0.09783022 -0.1621161 -0.015332282 -0.12663195 0.040051963 -0.09698824
0.37630904 0.2333215 0.027364556 0.28682443 0.4869479 0.022660505 -0.24761999 0.32567105
-0.3596013 -0.45914397 0.026924707 -0.035056926 -0.3275399 0.25389645 -0.06949145 -0.29913822
-0.050307296 -0.23949963 -0.008162361 -0.1111526 -0.09566842 -0.349534 0.055330787 0.14412397
0.3862046 -0.16171104 -0.047400113 -0.1462885 0.041147053 0.21089517 -0.0797096 -0.07941864
0.18680581 0.2767338 -0.30278155 -0.25420746 0.11268892 -0.07990009 -0.50216246 0.25530964
-0.07548782 -0.5854827 0.05663466 -0.09135845 -0.3722803 0.081958525 -0.12101634 -0.6843291
-0.016364304 -0.27938378 -0.15225714 -0.21311422 -0.023642655 -0.21734689 0.06356178 -0.48222303
-0.18097284 -0.06284358 -0.24380448 -0.1585554 0.012906121 0.20992568 -0.043447662 -0.003297755
-0.19170488 -0.0060915947 -0.20786546 -0.73560095 -0.12404941 0.017998861 -0.19464208 -0.30074665
0.24609591 0.23266695 -0.045433566 -0.039246757 0.14099786 -0.021014242 -0.08340604 0.18804379
-0.09178039 -0.22538167 -0.12233295 0.03765147 0.009619502 0.015687643 0.08068779 -0.025115287
-0.56336683 0.060199525 -0.31170288 -0.21001847 -0.04392801 -0.26942614 -0.010928605 -0.06253519
-0.35497698 -0.1888803 0.08486439 0.28437063 -0.61729705 -0.09826634 0.2062665 -0.122782394
-0.050566737 0.09885626 -0.003939064 -0.02281787 0.082407184 -0.0068962667 0.045917235 0.34879968
0.0533919 0.0014224092 0.31576943 0.17398338 -0.11841724 0.20868428 0.03328649 0.17703229
0.45264885 -0.104385965 0.18617472 -0.07907065 0.051867403 -0.1291918 -0.03430297 -0.062166397
-0.13677016 0.05048939 0.054000247 0.43193388 -0.07618092 -0.06515203 0.23038293 0.214942
-0.24527247 -0.36087883 -0.061953202 -0.11812197 -0.13065864 -0.07251481 0.106006175 0.019092202
0.07267335 -0.05014979 0.21977468 0.2511537 -0.09315077 -0.32683367 -0.05751274 -0.025717108
0.31829113 0.023782063 0.4230674 0.033382002 -0.05433035 -0.081773624 -0.07951117 -0.05689786
-0.20861281 0.17999458 -0.30523407 0.111748144 -0.079153895 -0.11610886 -0.1006764 -0.012078364
0.17560974 -0.27240586 -0.010678511 0.02032863 -0.03544684 -0.07761286 0.046297673 -0.35024595
0.05070781 -0.15879127 0.07030008 0.029744243 0.003203098 -0.13298048 0.03320377 -0.11301624
-0.04082702 0.10800118 -0.029640984 -0.03915776 -0.036810007 -0.170406 -0.047038358 0.09221057
-0.38236466 -0.002882704 -0.0043340484 -0.3531481 -0.11477748 0.070560284 -0.01147656 -0.3205125
0.1275282 -0.056337755 0.02175558 0.17530195 0.055907406 0.04904292 -0.0153361475 -0.027117694
-0.006719993 0.034133475 -0.22517963 -0.112866834 0.21519001 0.1561521 0.07085103 0.13271508
-0.47558782 0.25663894 -0.43666965 -0.012130171 0.03303234 -0.24469936 -0.06997128 0.045656804
-0.2964786 -0.27829933 0.20948797 -0.061541665 -0.2361908 0.035783526 0.18286845 -0.17893828

arith.constant4 f4 [1, 256]
00000000: 6f0a 8c3e 59d5 803d add5 de3d e914 0d3e
00000010: ec65 4abe a4de 6abe fc02 943d 23f8 c93e
00000020: 0efd a8bd 9443 333f 9291 93bd 74d9 febd
00000030: b800 8dbc 9982 9ebd 64fe 9bbd 26d2 5ebd
00000040: 0bb2 e7bd bb36 113f 58fd aabe 1ee6 ca3d
00000050: 8610 c3bd 839a 77bd 169f 13be f959 133e
00000060: 5ac3 e1bb 68e8 b83e 17ee 3d3e fa76 7f3d
00000070: f732 723e 9314 6c3e 1e49 5ebe 4982 c2be
00000080: f8e9 a93d c45b 113f 2c44 a2bc 0c60 2dbd
00000090: 1712 f6bd 6047 debd 3dd8 1e3e 994a a7bd
000000a0: 0ba5 b43d 98b0 aa3e 382a febc 570e 503e
000000b0: d118 9e3e b58e 383e 6bf6 463e 5e0e 37bc
000000c0: a60d 01be d7eb 74bd 9acd 3f3c 9539 37ba
000000d0: 49fc 23be 0c1b 69be e4c1 96bd 2150 03be
000000e0: f69d 3b3e 26d0 f53e 8a08 4cbd 8043 203e
000000f0: b59e 9a3e 53c0 bfbd b2c8 9dbd 02ea b23c
00000100: bafd b2be d27f 2abd a82c a83d f4f1 67be
00000110: cb3b 01bc b996 e1bd 687f e23e f3a5 56bd
00000120: 8b09 c1bd 4822 73bd 12d8 5b3d 1ce7 e03d
00000130: 40dd 1d3e efb7 9cbe a7b2 743e 1474 023f
00000140: 0445 0f3e 6487 2a3e 60c8 dc3d 9a2c 423e
00000150: a43e 0f3e d82a 743e 0e37 bf3e 09f1 9cbd
00000160: ff91 a2bd 33ff 54be cb59 473d 9846 e63d
00000170: 9939 083e 5a05 c33e 18a0 cdbe 01ef fe3d
00000180: 6a8e 923e 961e 8b3e 887a 183d 2c2d 90be
00000190: 0e09 5b3e d6a9 173f 528b 2ebd 9875 4b3e
000001a0: 9a13 a03e 313c 8f3e 28d4 71be dc5b 84bd
000001b0: df59 45be 8e68 c3bc f4cc fa3e 4057 653e
000001c0: 40de aa3d c26a 0d3e 9db1 063f bfb1 a3bd
000001d0: a0e6 da3c 4e2f fcbd 6766 ae3e 8579 a1bd
000001e0: 6eab c2bd 0aef 843c 8fdf 2abe 8744 2dbd
000001f0: 4519 e13d ed99 b73e 228b 6abe 9d6b 83be
00000200: 2048 fc3e df9c dd3d 348c 19be 59aa 183e
00000210: 34e1 8c3c dd79 47ba 1191 813e 2b54 93bc
00000220: 5d5f 0cbd 4932 4e3e 732f 233e 8785 abbc
00000230: ca5a 4abe b580 efbd 3ac7 663e c955 32bd
00000240: fa2f 05be 9a48 0abe a135 463d 74a7 bd3e
00000250: 0028 7f3d 886d e03e 7aef 9c3d 3e7a 4bbc
00000260: 24cf ec3d 3cb7 cc3d 7caf bdbd 32bf 853e
00000270: 3dac 93bd 19d7 bcbd 2d5b cd3e 3a07 18bd
00000280: d07f 97bd ea8a 16be 7f0f e53d 6224 ba3e
00000290: a6f9 c53d e31a db3e 5f4b bfbd 5421 f4bc
000002a0: a6c6 d73e f1e5 f1bd eead c3bc 5461 06bf
000002b0: 5367 4fbb daef 503e 0821 b83d a42c d7bd
000002c0: cbe1 01bd 4f3f 733d 0fbf 133e a802 e43e
000002d0: 4381 423e ef8c 73bd e75c a63b b565 3e3e
000002e0: e77a 5a3e 5f1b 413d 83aa 6dbd 3807 e53e
000002f0: 2c2c bebd 2031 03bd a6c2 d53c 2b71 54bd
00000300: 3d2f 143e 2035 c3bc bb40 1abe 3084 bcbd
00000310: 80ac b43c 768c d13d 9440 89bc b4cf 12be
00000320: 1c69 3fbc 5d9e cb3e d98e 783d 820d 4bbe
00000330: c7e9 0d3d 5f14 ac3e e38d 363e 04ce 6a3c
00000340: 5757 a6bd 9c3f d53c bd80 fbbd 0034 44bc
00000350: fce5 7ebc da11 3abe c11e 0f3d 431a 9e3c
00000360: aa49 f3bd 8e52 91be 1206 8cbd 2d07 03bd
00000370: 1cdd 193c fbf9 f4bd 1cb1 283e 158a 48be
00000380: 2e9c 48bd 1326 58be f225 ae3e 231f 8cbd
00000390: dc53 7d3c dcec 83be 8672 083e 540f 0d3e
000003a0: 67b7 103d 0ec3 aebd c242 e53e 5b58 a6bd
000003b0: 8010 b2bd 9ed9 0dbe 5802 043e b9b1 de3d
000003c0: c9da d3be 4cd0 afbd 612d a03d a3b6 053f
000003d0: 14ef 453e 49c1 97bd d06e fe3c c5e3 8a3d
000003e0: b296 d9bd a3dc 4fbd 647c 99bd bf46 2f3e
000003f0: 1328 753e 7047 03be 87a5 fcbc 209a 2cbd
0.2735171 0.06290693 0.10880599 0.13777508 -0.19765443 -0.22936493 0.07227132 0.39447126
-0.08251391 0.7002499 -0.072055 -0.1244382 -0.017212257 -0.07739753 -0.076168805 -0.054399632
-0.11313256 0.5672414 -0.3339641 0.099071726 -0.09524636 -0.06045009 -0.14416155 0.1438979
-0.006889743 0.36114812 0.18547855 0.062369324 0.23652254 0.23054723 -0.2170758 -0.37990025
0.08296579 0.5678065 -0.019807898 -0.042327926 -0.12015169 -0.108534575 0.15512176 -0.08168525
0.08820542 0.33337855 -0.03102599 0.2031797 0.30878308 0.18023188 0.19429938 -0.011172859
-0.12602863 -0.059795227 0.011706734 -0.00069894764 -0.16014208 -0.22764224 -0.073612005 -0.12823536
0.18321976 0.48010367 -0.04981283 0.15650749 0.3019921 -0.09362855 -0.07704295 0.0218401
-0.34959203 -0.041625805 0.082116425 -0.22650892 -0.007887791 -0.11015076 0.44237828 -0.052404355
-0.09425648 -0.059358865 0.053672858 0.109815806 0.15416431 -0.3060908 0.23896275 0.5095837
0.13991171 0.1665321 0.10780406 0.18962327 0.13988739 0.23844469 0.3734669 -0.07663161
-0.07938003 -0.20800476 0.048669618 0.112439334 0.13303222 0.3809002 -0.40161204 0.1244793
0.28624278 0.27171773 0.03722623 -0.28159463 0.21390173 0.59243524 -0.042613335 0.19869077
0.31264955 0.2797561 -0.23616087 -0.06462833 -0.19272564 -0.023853566 0.48984492 0.22396564
0.08343172 0.13810256 0.52614766 -0.07992887 0.026721299 -0.1231371 0.34062502 -0.07884506
-0.09505354 0.016227264 -0.16686843 -0.04230168 0.10991148 0.35859624 -0.22904637 -0.2566804
0.49273777 0.108209364 -0.1499489 0.14908732 0.017197229 -0.00076094066 0.2530599 -0.01798447
-0.034270633 0.2013637 0.15936069 -0.020937694 -0.19761196 -0.11694471 0.22536936 -0.043538842
-0.13006583 -0.13504258 0.04839099 0.3704182 0.062294006 0.43833566 0.07662864 -0.0124192815
0.115629464 0.09995887 -0.092619866 0.26122433 -0.07210586 -0.09220714 0.40108624 -0.037116267
-0.07397425 -0.14701429 0.11184596 0.36355883 0.09666757 0.4279395 -0.09340548 -0.029801048
0.42143744 -0.11811436 -0.023886647 -0.5249226 -0.003164728 0.20403996 0.08990675 -0.105065614
-0.031709474 0.059386548 0.14428352 0.44533277 0.18994622 -0.059460577 0.005076993 0.18593486
0.21335946 0.047145244 -0.05802394 0.4473207 -0.09285769 -0.03202927 0.026093792 -0.051865738
0.14471145 -0.023829043 -0.15063755 -0.092049 0.02205491 0.10231869 -0.016754426 -0.14337045
-0.011682775 0.3976926 0.060683105 -0.19829372 0.034646776 0.33609292 0.17827563 0.0143313445
-0.081221275 0.026031308 -0.12280414 -0.011975288 -0.015557762 -0.18170872 0.03494144 0.019299632
-0.11879285 -0.28383297 -0.06837095 -0.031989265 0.0093910955 -0.119617425 0.16473812 -0.19583924
-0.04897707 -0.21108274 0.34013325 -0.06841876 0.015461888 -0.25766647 0.13324937 0.13775378
0.035331156 -0.085332975 0.44777495 -0.08122321 -0.086945534 -0.13852546 0.12891519 0.10873742
-0.41377857 -0.08584651 0.07821155 0.52231807 0.19329482 -0.07409913 0.031058699 0.06781725
-0.10624446 -0.050747525 -0.07494429 0.17116831 0.23941068 -0.1282022 -0.030840648 -0.042139173

arith.constant5 f4 [256, 256]
00000000: f116 92bd 1487 2c3f a187 e4bc e2ff c43c
00000010: bde1 9a3d 2d5e 1dbe a1da 46bd f4e5 463e
00000020: 85e7 aebc 1f2a b83d c123 9b3e c76b cdbd
00000030: 07d1 50bd c266 6d3e d6ea 0d3e 6cc8 2cbd
00000040: 8397 823e 4d8a 3f3e c75d aebd ae83 be3d
00000050: fd6c a93c ddf5 053e ec2c d6bd c0a8 493c
00000060: d719 b8bd 32a0 9abd fc76 013e f919 cb3d
00000070: 1e8d 2d3d 8218 a73d c946 a4bd 7cb5 0dbe
00000080: dd4f 9b3c 23cd e63c 6a66 0bbe 5fd6 213d
00000090: 4690 34be cb29 1fbe 46c4 ce3d 90e3 3bbe
000000a0: 9075 203e c5c4 7d3b 16fc 9c3d 99e0 8e3c
000000b0: a286 f5bb 9b9c ffbe 6d4a c73d 06c9 0d3e
000000c0: 7e8b c9bc a0a4 273c 2227 ae3d 2f9d 3d3e
000000d0: b0ec 6e3d a38e 3d3e cd67 093e ce50 a1bd
000000e0: fb3e a53d 6fe6 76bd 7470 ac3c 4a68 c63d
000000f0: 6f20 60be 4e7d 133e 7405 d83d 9548 11be
00000100: 87bd d9bd 5ce6 b73e 8bfe cdbc c606 943e
00000110: ca1c 593c 0964 febd 8773 0cbc 75d2 2bbd
00000120: eb60 8b3d 191d 1a3d ce8f 763b 0099 963d
00000130: d34e 023e 149e 083e 01cc 493e 81c2 043f
00000140: c49b 363d 0635 893c 025d b43d ced9 4b3d
00000150: d063 e93d b897 e5bd 885b 6d3c 6946 903c
00000160: 3fa1 d43d 8434 92be 0cb7 70be b269 4e3e
00000170: cfb3 023e 6a47 173e b13a 633d 9613 213e
00000180: 8395 0cbe 93b0 b93d 761f 8b3d 4d52 59be
00000190: 012a 843e a079 08bd f27d 493d f007 8b3e
000001a0: d0c8 c43e 2b17 9ebd 854f c0bd 23f2 fa3d
000001b0: c657 7dbd e5a7 1b3e 12d3 823d 516e aa3d
000001c0: d055 f0bc ee21 1a3d 87e5 5dbd e986 b63c
000001d0: c278 9a3e 70ab de3d 5dcd 183d 0adb 9f3d
000001e0: 26d3 b63d edb5 e33d b126 b03d befd 74bc
000001f0: ece1 81be e3d1 2cbd db16 353d 5215 c73d
00000200: 1f11 e5bd d2e6 e13e 2fed 44bb b947 9dbd
00000210: 2915 cabd bba1 b7be 6454 ee3d 5022 91bd
00000220: 56f5 afbe 1052 c03e 44dd b33e 8d34 67bd
00000230: d968 c23c 326f 833e c85e 3a3e d4b9 9c3d
00000240: 6700 cb3c 34a7 513e a6da 403d bc0d 4c3c
00000250: dc3b de3d 1d21 cfbc c871 a5bd 6a04 9cbc
00000260: e533 853d 481e 54bd b856 e4bd 3cdc 133e
00000270: 430a f83d d6fe ee3e 2ed5 bebc c61e 56bd
00000280: d924 a1bd 3ce6 ff3b e581 21bb 6b7c 80bd
00000290: 0417 49be 4083 0a3c 03bf 9fbd b58c adbd
000002a0: 8711 0cbe 405e 8e3a 44d2 99be bf21 99be
000002b0: 4425 85bd bab6 23bd 1575 a2bd c343 03bd
000002c0: a759 823e 3886 aa3d 7110 6ebd c7d1 1ebe
000002d0: 01f0 aabd 550e 043e a6d5 75bc 6174 a8bd
000002e0: c4e4 c33e 44de 003c c25a 0b3c c39e a43b
000002f0: e7fe 6fbe 0c5f 0cbd 2e18 a8bd a7e0 cbbe
00000300: 1dba abbe 3442 fdbd f189 88be 98d3 673e
00000310: bbb1 60be 3a8a 44be 1a2f cebd cbb7 4fbd
00000320: 9b22 c4bd d5dd 12be 7727 b7bd af78 63be
00000330: 751b c1bd 4a73 6ebd 2a95 923e 5cf9 273f
00000340: 29c1 903c f094 463d 97c6 bcbc 203a dbbe
00000350: 0fae 8c3e 7559 3cbd e7f9 c03c e371 773d
00000360: ec3b 973e 1565 a9be f8c9 04be c5ac 5d3e
00000370: a186 383d 0f27 86bd 44bf 483d 6a33 823d
00000380: b1fe 50be 85df b2bd be50 e03d bbbd 95bb
00000390: db7f adbe acec f6bd 390d f53d dc17 b83e
000003a0: e9cf 8e3e 3c55 c7bb 5830 eebe 6728 b13d
000003b0: ad9a 4b3e 3661 8f3e f6e3 a9bd c157 7e3c
000003c0: 9fac 9a3d 28d1 cc3c 500c 0d3d 6b9a 12bc
000003d0: 7ed1 873d 1fb5 d73c 1cde aa3d 9720 b83d
000003e0: 7e4a 043e e51e 13bc 4bfd a23e 9de5 3b3d
000003f0: 3179 ea3a cebb 46bd b345 de3d c6b0 a63e
-0.07133282 0.6739361 -0.027896704 0.024047796 0.075625874 -0.15367956 -0.048548345 0.19423658
-0.021350631 0.08992409 0.30300716 -0.100303225 -0.050980594 0.2318373 0.13859114 -0.042183325
0.2550622 0.18705101 -0.0851398 0.0930246 0.020681852 0.1308207 -0.10457787 0.0123083
-0.089893036 -0.07550086 0.12643045 0.09917063 0.042370908 0.08158971 -0.08021314 -0.13838762
0.01895898 0.028173989 -0.13613287 0.03951108 -0.17633161 -0.15543287 0.1009603 -0.18348527
0.15669847 0.003872202 0.07665269 0.01744108 -0.007492856 -0.49924168 0.097309925 0.13846216
-0.024602648 0.010232121 0.08503558 0.18516992 0.05833119 0.18511443 0.13418503 -0.078767404
0.08068653 -0.060278352 0.021049716 0.0968786 -0.21887372 0.14403269 0.10547915 -0.14187844
-0.106318526 0.35917938 -0.02514579 0.28911418 0.013251493 -0.12421424 -0.008572466 -0.041948754
0.06805595 0.037625406 0.0037622335 0.07353401 0.12725382 0.13341552 0.19706728 0.5185929
0.044582143 0.016748916 0.08806802 0.04976826 0.11395991 -0.11210579 0.014487155 0.0176117
0.10382318 -0.2855569 -0.23507327 0.20157507 0.12763904 0.14773336 0.055475894 0.15730128
-0.13728909 0.09066882 0.0679311 -0.21222802 0.25813296 -0.033319116 0.049192376 0.27154493
0.38434458 -0.07719263 -0.09390167 0.12253215 -0.061851285 0.15200765 0.06387915 0.083218224
-0.029337794 0.037630014 -0.054173972 0.022281127 0.30170256 0.10872543 0.037305225 0.0780545
0.08926992 0.11118684 0.0860113 -0.014953075 -0.25367677 -0.04219235 0.04421125 0.097208634
-0.11184906 0.44121414 -0.00300486 -0.07679696 -0.09867317 -0.35865578 0.1163719 -0.07086623
-0.34366864 0.3756261 0.3512975 -0.0564466 0.023731636 0.25670773 0.18200219 0.076526314
0.024780465 0.20473939 0.04708352 0.012454446 0.10851261 -0.025284344 -0.08078343 -0.019045074
0.06504039 -0.05178669 -0.11149353 0.14439481 0.12111332 0.466788 -0.023295011 -0.05227544
-0.07868356 0.0078094285 -0.0024644074 -0.06273731 -0.19637686 0.008454144 -0.078001045 -0.08474103
-0.13678561 0.0010861829 -0.30043232 -0.2990856 -0.065012485 -0.039969184 -0.07932488 -0.032047044
0.25459024 0.083263814 -0.05812115 -0.15509711 -0.08346558 0.12896092 -0.015004551 -0.082253225
0.38260472 0.007865492 0.008505525 0.0050238087 -0.23437081 -0.03427033 -0.08207737 -0.39819834
-0.3354043 -0.12366143 -0.2666774 0.2263931 -0.21942799 -0.19193354 -0.10067578 -0.050712388
-0.09576913 -0.14342435 -0.08943074 -0.22214006 -0.09429065 -0.058215417 0.28629428 0.6561487
0.017670231 0.04848188 -0.023043914 -0.42817783 0.27476546 -0.04598375 0.023556663 0.060411345
0.29537904 -0.33084932 -0.1296767 0.21647938 0.045050267 -0.065504186 0.04901053 0.06357463
-0.20409657 -0.08734039 0.109529 -0.004569737 -0.33886608 -0.1205686 0.11965413 0.35955703
0.27892998 -0.006083159 -0.46521258 0.08650284 0.19883223 0.28003854 -0.08295433 0.015523852
0.07552456 0.025002077 0.03443557 -0.008947949 0.06631754 0.026331482 0.08343145 0.08990591
0.12919042 -0.008979534 0.31833872 0.045873273 0.0017888901 -0.04851895 0.10853138 0.32556742

arith.constant6 f4 [256]
00000000: 4c20 fa3d 4b5b 99bd 2ebf 853c ff70 73bb
00000010: ca30 b0bd 265f 36be dc33 033e 2a0d 3c3e
00000020: ad0b b33d 47b3 863e 5cf5 023d 529a 8c3d
00000030: b687 98bd 0ce5 1b3d 289b f93d eb67 173c
00000040: 2cda 3d3e 4eef a63d c227 dabe dc8f 7b3e
00000050: 4b21 9bbd f625 dcbc 3e74 763d 8b2d e73d
00000060: 5146 debc c587 a53e b2ea 273e e750 ca3d
00000070: 8ad4 243e 2277 4c3e 5a8d 3dbd 8024 283e
00000080: 7980 363d ecd8 a83d 2810 30be 38f2 1f3d
00000090: 2eed acbd c6dd dc3d 1870 1c3e 7e32 f03d
000000a0: 2c6a adbc eb2b 783e 69fa 9ebd 3299 4f3e
000000b0: cc2c 933e 98b1 953e d031 eb3d 8d97 6abd
000000c0: b650 203d baa6 2c3b 0795 58bd 4c87 0d3e
000000d0: 8d48 643e 9f9a 0c3e bd84 d33c 6a6b 39bd
000000e0: 2991 f2bb cd33 3b3e bdf5 333d a923 0c3e
000000f0: adb7 923e 60c2 dc3c 529b 25bb b553 e4bd
00000100: b499 95bd 8680 01be a49c abbd eb9b c33c
00000110: 54b4 d9bd 4bac 183e 41ee 443e 43ea 25bd
00000120: 42c3 45bd 6410 023e 808a 1cbd b220 0c3e
00000130: 51c7 193e 6440 9b3d e92b 2f3e 8993 8a3e
00000140: e661 183e 17aa 2f3e eac0 8c3d 5a6f 013e
00000150: fe2f d23d 39c0 223e 7ff3 373e 0f01 a63d
00000160: a9dd a3bd 8f88 0abe 9f58 043d b0df 3e3d
00000170: 2b93 3d3e c285 763e b0f0 b2bd 1d42 233e
00000180: d2ed 803e 6bff c2bd 70cd 703e 868e cbbd
00000190: 0e0f d43d 78ca 513e 97ad 88bd 8048 3e3e
000001a0: 9a33 9a3e b35c 3cbd 3d48 15bf e3e7 f83d
000001b0: 3f87 e83d 5639 a7bd 9598 743e 8f69 e83d
000001c0: 549f 743e 3b65 4b3e bd49 303e ba1b 8c3d
000001d0: 5a96 3abd 041e 8e3d 4c53 333e c903 0f3e
000001e0: 4b42 8dbe 65f8 a8bd 9de3 33be f84f 463d
000001f0: f7b2 dd3d 0a95 733e 7038 07bd 3242 d0bb
00000200: 97eb 353e 3acb 493e 3758 a9bd 726c 633e
00000210: d33d 20be 09f4 bebd ff47 4a3e 6ebc 74bd
00000220: 845e 55bd a089 7e3e dadc 5f3e 686a b7bd
00000230: 00d0 a53d 1dde 773d 6827 1c3e ba80 993d
00000240: af96 753d e2b1 00bf 85b4 163e 866b 863e
00000250: eab4 f83d a234 1f3e 462a c03d ea92 413d
00000260: a40a 3e3e ca22 e23d dfd5 c93d 6743 c73d
00000270: d126 823c b376 29bd 01f4 813e e5ee b93d
00000280: 7348 e23d 3f96 663d 097a ba3d 7ff7 773e
00000290: ef64 75bb a25a 573d 049b 6ebd d167 8cbd
000002a0: 15fb 873e 3eeb 5c3d 9ba6 b33b 5b9e f8bd
000002b0: 3646 18bd 353d fc3d f844 413e 8025 863d
000002c0: 6a2c 2dbd 7018 c4bd 8c81 30bd 6c78 503e
000002d0: c70b 3c3e 22fc 1d3c 4ad7 b2bd c384 063e
000002e0: ba8f cd3d c2bd 2d3e 0abf 61bd 31b3 5e3e
000002f0: 67ec fa3b 15d4 1c3e 2ee1 b8bd 5932 c9bc
00000300: 66ef 633e 4d1b 06be d455 cdbd 35b6 883b
00000310: 67c1 13bd ff53 67bd efe8 abbd 809b 20be
00000320: d1d0 88bd 853e 693e f093 993b 7f55 a9bd
00000330: 1f8b 72bd 67af 323e 03ea 5a3e a3e8 c7bd
00000340: 746d 2abd a252 10be e886 403e 1455 fc3b
00000350: 3d4f a43d 1504 b23d 2314 e9bd 80ff aebd
00000360: 5798 7d3e 8ba9 f3bd 2f66 05bb 02b2 7c3c
00000370: 5c4a 51bd 53c8 6ebc 4165 243e 6d4c ac3d
00000380: 6a76 123d a78f 0e3e dd6a 3b3e fb83 adbc
00000390: 32f9 8cbd 1155 453d 1b09 5bbc 4eba 653e
000003a0: 74b7 8dbd 847f 36bd 28d5 4c3e 5f0b c93d
000003b0: d086 99bb d7ce be3c 3e06 333d deda 513e
000003c0: 641e eabd 488d 523c 58a3 2c3e 3ef0 553e
000003d0: 53c5 5f3e 0bb1 9fbc c8d5 f8bd 679f 10bd
000003e0: b7df 613d 2385 04bd 0e77 b33d e880 f8bd
000003f0: be92 1d3e 4e53 cf3d be39 c4bd 87bd 093c
0.122131914 -0.07488116 0.016326513 -0.0037146208 -0.08603056 -0.17809734 0.12812752 0.18364397
0.08742461 0.26308653 0.031972274 0.06865372 -0.0744776 0.038060233 0.12187797 0.009241085
0.18540257 0.081511125 -0.42608458 0.24566597 -0.075747095 -0.02687357 0.06016945 0.112879835
-0.027133139 0.32330146 0.16398123 0.09878712 0.16096702 0.1996732 -0.04627738 0.16420174
0.044556115 0.082444996 -0.17193663 0.039049357 -0.08443676 0.107844874 0.15277135 0.117283806
-0.02116879 0.24235503 -0.07762606 0.20273283 0.28745115 0.29237056 0.1148411 -0.057273436
0.039139472 0.0026344494 -0.0528765 0.13821143 0.22293301 0.13730858 0.02582013 -0.045268454
-0.0074025583 0.18281479 0.043935526 0.13685478 0.28655759 0.026948154 -0.002526958 -0.11148778
-0.07304707 -0.12646684 -0.08379486 0.023878058 -0.10630098 0.14909475 0.19231512 -0.040506613
-0.048281915 0.12701565 -0.03821802 0.13684347 0.1501744 0.07580641 0.17106594 0.27065685
0.14881095 0.17154728 0.06872733 0.12640134 0.1026306 0.1589364 0.1796398 0.08105671
-0.08001263 -0.13528655 0.03231108 0.046600044 0.18513171 0.24074462 -0.08737314 0.15943189
0.25181442 -0.09521373 0.23515868 -0.099392936 0.10354434 0.20487392 -0.06673735 0.18582344
0.30117494 -0.045986842 -0.5831335 0.12153604 0.11353921 -0.08165233 0.2388633 0.11348259
0.23888904 0.19862835 0.17215629 0.06841226 -0.045553543 0.06939319 0.17512244 0.13966288
-0.2758964 -0.082505025 -0.17567296 0.048416108 0.108251505 0.23787323 -0.033012807 -0.0063555473
0.17765652 0.19706431 -0.08268779 0.22209337 -0.15648584 -0.0932389 0.19754027 -0.059750013
-0.05209209 0.24857187 0.21861592 -0.08955842 0.080963135 0.060514558 0.15249407 0.07495256
0.059958156 -0.5027143 0.147173 0.2625391 0.121438816 0.15547422 0.09383063 0.04725925
0.18558747 0.11041792 0.09855246 0.09729653 0.01588765 -0.041372966 0.25381473 0.09078769
0.11048975 0.05629563 0.091053076 0.24215506 -0.0037444194 0.05257667 -0.058253303 -0.06855739
0.26558748 0.053935282 0.0054825074 -0.12139579 -0.037176333 0.12316362 0.18873966 0.06550121
-0.042278685 -0.095749736 -0.043092296 0.20358437 0.18363868 0.009642633 -0.087324694 0.13136582
0.10037179 0.16966918 -0.05511383 0.21748044 0.007657576 0.15315278 -0.090273246 -0.02456014
0.22259292 -0.13096352 -0.10026136 0.0041721114 -0.036073115 -0.05647659 -0.08394038 -0.15684319
-0.066804536 0.22777756 0.004686825 -0.0826826 -0.059214707 0.17449723 0.21378331 -0.09761169
-0.04160829 -0.14094022 0.18801463 0.007700572 0.08022926 0.08692185 -0.11380794 -0.085448265
0.24765144 -0.11897572 -0.0020355096 0.0154233 -0.051096305 -0.014574128 0.1605425 0.084130146
0.03575746 0.13921987 0.18302484 -0.021181097 -0.06883468 0.04817683 -0.01336887 0.22434351
-0.069197565 -0.044555202 0.20003188 0.09816622 -0.0046852604 0.023291988 0.043707125 0.20493647
-0.11431578 0.012851067 0.16859186 0.20892426 0.21852617 -0.0194936 -0.121501505 -0.035308268
0.05514499 -0.03235353 0.08762942 -0.12133962 0.15388009 0.10123311 -0.09581326 0.008407003

sequential_1/conv2d_1/convolution f4 [32, 3, 3, 1]
00000000: 64d9 053e 1cca 353d c1f9 bdbe d7bc 5b3d
00000010: 2a35 7ebd 0a0b d9be 17b7 dfbc ae11 69be
00000020: 432c 18be 4914 973e 8a04 58bd e2a0 8dbe
00000030: fa84 c63e efd8 2b3e 7856 f9be 1729 ce3e
00000040: d89b 24be 7acd eebe 06a2 e4bd 38ad 0dbe
00000050: f41f 1abd 691e 6d3d c48e 8c3d 488b 85bc
00000060: 2aeb 0bbe 6206 733d 0bdd 383d 475a adbd
00000070: f7ae 29be 03c9 5bbe edcb cb3d 1466 463d
00000080: 760d 9dbc b881 1f3d e5bc a0bd 57ab 063e
00000090: 22c6 703e 3b55 b13d a9b2 86be d526 f1b9
000000a0: e948 d9bd d28e f2be 9f89 223d d2d1 8a3d
000000b0: e980 63be a47b bc3c 7a44 6dbe 968a 0dbe
000000c0: e6dd 07be f041 5cbe f7fb dc3d 5759 42be
000000d0: 78ed 7ebe b27a 3ebe bd97 743d 3b32 34bd
000000e0: 26b0 c33d 4e21 40bc 89b4 0e3d 93f1 693d
000000f0: 6cae 36be f9a7 92bd 32ec debd 8a72 1ebe
00000100: 4a51 95be 9123 2b3e 7680 583d 74a7 c5be
00000110: 6d28 64be ad0e ac3e dd4e 2e3e 5daa e3bd
00000120: 003a c7bd 35fe 133c 7cd9 b6bd 1539 803d
00000130: be61 00be cb2f c6bd 6de5 073e ecda 58bc
00000140: 6267 6b3d 1a38 c8bd 9468 7bbd 5f4a 573e
00000150: a343 6bbe 6d3c 58bd f0eb f93e a58f e1be
00000160: 4b6d fa3c fb99 b53e 60ee 3f3e e2b9 803d
00000170: f0e6 ca3d a750 0bbe 1cbe 1ebe 5192 00be
00000180: 69ce 99be c32a 67be 9491 6cbe 204b 5d3e
00000190: 71d1 b63d a03c 743e 1b9d c43d 418d 5e3d
000001a0: d363 afbd 8111 23be feb9 86be 5b88 ebbe
000001b0: 788b dc3b 584b b7bc 2f98 68be b7e0 48bc
000001c0: d3ca 363a ab89 a03d 98d8 b03d 5c5a 1cbd
000001d0: 9c8b 0d3e bb7f c7be 483f d2be 425e 053d
000001e0: 4def b2be 2042 a53c 27d7 253e baeb 75bc
000001f0: 18b3 be3e 6ed0 e83e 3595 75bd 5d1c febd
00000200: 5ef1 10be b2d2 f8bd 20cd 113d bb26 5bbd
00000210: 29a4 3dbd bf4e cdbd 7ced 3e3d b237 86be
00000220: e876 96be 4fae fdbd 7ff6 dcbd 8065 19be
00000230: abda 32be 8d20 053e af16 3cbe bebd 3fbe
00000240: 7858 8cbc 2cf1 333e a346 243e 1890 febe
00000250: f269 15bc 5786 8e3e 8be1 1cbf c5a6 50bd
00000260: 7635 953e 83cc a23d c889 e7bc b020 273e
00000270: 3f72 463e 5947 883d 0416 f43d 0137 9d3d
00000280: 21a7 413d 1a72 6b3e 6637 9a3e 83d0 6d3e
00000290: f8b3 a73e b866 c03d dcfe fc3d 3204 d73d
000002a0: 140e aabe 1742 dbbe c94e 04bf af90 8bbe
000002b0: 6b75 903d d6a5 42be 14fb 133d 9cff 703d
000002c0: 4473 0b3e 7458 ca3e 73a8 903e fe09 803d
000002d0: cace 61bd 81fe 12be a480 2c3c 5f2c 8bbd
000002e0: 1bb3 38bd 828b 43bd 4e40 69bd 9916 babd
000002f0: dd97 293d c7fa cb3e df82 6bbe 8602 5cbe
00000300: 7b2f b83e f68a c9bc bb02 76be 35b3 3e3e
00000310: 7ca8 b5bc 0b9b 92be 3d92 5dbd 9b9e 10be
00000320: f08b 603c 3513 323d aa15 92bc 126f 05be
00000330: 4336 8cbd 4b69 a8bd 6b71 58bd babd 65bc
00000340: 4578 6fbc 67ff 92bb 9569 0abd af80 26bd
00000350: 86b6 853d 46bf 763d 281f 273d 2953 23bc
00000360: 24f5 d7bd aa41 acbe 5690 80be cbf6 9ebd
00000370: dee4 f1be 75cf 87be 324a bc3d cdec 97be
00000380: 7329 42be 01d7 acbd c52d 823b 29d1 1d3c
00000390: e615 4dbd d52f b0bd 60e5 f23d a688 dbbe
000003a0: 8a19 c8be c196 7bbe 5a46 a7bb 6148 8cbe
000003b0: 5f6e b5be e9f2 83bd 09c0 86bc 5034 09be
000003c0: 82c6 143e 0105 5cbd eced 103d 7f3d 85bc
000003d0: 7528 07be 1539 533e 7246 8a3d c522 80be
000003e0: e357 91be 32b2 d23e aba5 2c3c c26d f5be
000003f0: 74ce 9dbd 2b64 6abe f551 203e 469d cbbe
0.13071209 0.0443822 -0.3710461 0.05364689 -0.06206242 -0.42391235 -0.027308984 -0.2276065
-0.14860635 0.29507664 -0.052738704 -0.27661806 0.38773328 0.16781972 -0.48698783 0.40265724
-0.16075075 -0.4664114 -0.11163716 -0.13835609 -0.03762813 0.05789033 0.06863168 -0.016301766
-0.13663927 0.05933226 0.045132678 -0.08464485 -0.1657065 -0.21463399 0.09951005 0.048437193
-0.019171458 0.03894207 -0.07848529 0.13151298 0.23513082 0.086588345 -0.26308182 -0.00045996034
-0.1060961 -0.47374588 0.039682027 0.06778301 -0.22217144 0.023008175 -0.23170653 -0.13822398
-0.13268241 -0.21509528 0.10790246 -0.18979393 -0.24895275 -0.18601492 0.05971502 -0.043993216
0.09555082 -0.01172669 0.03484014 0.05711515 -0.17839974 -0.071609445 -0.108848944 -0.1547338
-0.2916358 0.16712786 0.052856885 -0.3860432 -0.22281046 0.33604947 0.17022271 -0.111164786
-0.097278595 0.009032776 -0.089282006 0.062608875 -0.12537286 -0.096770845 0.13271113 -0.013235789
0.05747164 -0.097763255 -0.06137903 0.21024464 -0.2297502 -0.052792 0.4881282 -0.44054905
0.030569693 0.3546904 0.18743277 0.06285454 0.09907329 -0.13604985 -0.15502208 -0.12555815
-0.3004029 -0.22574906 -0.23102409 0.21610689 0.089266665 0.23851252 0.09600278 0.05433393
-0.08563962 -0.15924646 -0.26313776 -0.46002468 0.006730493 -0.022374794 -0.22714303 -0.012260607
0.0006972972 0.07838758 0.08635062 -0.03817211 0.13822788 -0.38964638 -0.41063905 0.032560594
-0.34948197 0.020173132 0.16195355 -0.015009815 0.37246013 0.4547152 -0.059956748 -0.124077536
-0.14154574 -0.12149562 0.035596013 -0.053503733 -0.046299133 -0.10024785 0.0466132 -0.26214367
-0.29387593 -0.12386762 -0.10789203 -0.14980125 -0.17466228 0.13000698 -0.18368028 -0.18724725
-0.017132029 0.17572469 0.16042571 -0.4971931 -0.009119498 0.27836868 -0.6128165 -0.050940294
0.2914235 0.07949164 -0.028263941 0.16321063 0.19379519 0.066542335 0.11918262 0.07676507
0.047278527 0.22992745 0.3012039 0.23224072 0.32754493 0.09394592 0.12353298 0.10498847
-0.33213866 -0.4282386 -0.51682717 -0.27258822 0.07053646 -0.19008574 0.03612812 0.058837518
0.13618189 0.3952061 0.28253517 0.06251906 -0.05512885 -0.14354898 0.010528717 -0.067955725
-0.045092683 -0.047740467 -0.05694609 -0.090863414 0.041404594 0.39839765 -0.22999142 -0.21485338
0.35973725 -0.024602395 -0.24024479 0.1862305 -0.022175066 -0.28633913 -0.05409454 -0.14123003
0.013705239 0.04347535 -0.017832596 -0.13030651 -0.06846287 -0.08223208 -0.05284254 -0.014022285
-0.014616077 -0.0044860127 -0.033792097 -0.040650066 0.06528954 0.060241006 0.040801197 -0.009968557
-0.10544804 -0.33643848 -0.2511012 -0.07761916 -0.47244924 -0.26525465 0.09193839 -0.29672852
-0.18961124 -0.08439446 0.0039727413 0.009632387 -0.050069712 -0.08602873 0.11860156 -0.42877692
-0.39081985 -0.24569227 -0.005104822 -0.2739897 -0.3543577 -0.06442816 -0.016448991 -0.13398862
0.1452885 -0.05371571 0.03538315 -0.016264675 -0.13199027 0.20627244 0.067517176 -0.25026527
-0.28387365 0.41151577 0.010537545 -0.479353 -0.077053934 -0.22889774 0.15656264 -0.39768428

sequential_1/conv2d_1/Relu;sequential_1/conv2d_1/BiasAdd;sequential_1/conv2d_1/convolution; f4 [32]
00000000: ad36 ef3d 6434 873d a81e 95bd 66bf dcbd
00000010: 422d 393e 03ef 3e3d af1b 02be 3842 433e
00000020: 913d 19be bfd1 22be 9a3a 213e d44d 383d
00000030: 9a08 22be c852 643d 96b1 37bc aa5b 9b3e
00000040: 3221 7b3d 3a02 53be 4b71 933d a795 88be
00000050: eab1 d7bc ea7d d5bd 44e3 45bc 9c65 c8bd
00000060: b546 823e b4b5 b53d c391 64bd eb19 163e
00000070: d910 3b3d 57ba d8bd e99b 18bd 57d7 a73d
0.116803505 0.066017896 -0.07281238 -0.10778694 0.1808367 0.046614658 -0.12705873 0.19068229
-0.14964892 -0.15900324 0.15745011 0.044996098 -0.15823594 0.05574301 -0.011211773 0.30343372
0.061310954 -0.20606318 0.07199343 -0.26676676 -0.026329953 -0.10424407 -0.01207811 -0.097850055
0.2544457 0.08872548 -0.05580307 0.14658324 0.045670364 -0.105824165 -0.037258063 0.0819537
